{
  "layers" : [
    {
      "pad_r" : 2,
      "fused_relu" : 0,
      "fused_tanh" : 0,
      "debug_info" : "input.1",
      "pad_fill_mode" : 0,
      "pad_b" : 2,
      "pad_l" : 2,
      "top" : "input.1",
      "blob_weights" : 3,
      "K" : 3,
      "blob_biases" : 1,
      "stride_x" : 2,
      "name" : "input.1",
      "has_batch_norm" : 0,
      "type" : "convolution",
      "n_groups" : 1,
      "pad_t" : 2,
      "stride_y" : 2,
      "has_biases" : 1,
      "C" : 48,
      "bottom" : "image",
      "weights" : {

      },
      "Nx" : 6,
      "pad_mode" : 0,
      "pad_value" : 0,
      "Ny" : 6,
      "n_parallel" : 1
    },
    {
      "bottom" : "input.1",
      "weights" : {

      },
      "mode" : 3,
      "debug_info" : "input.3__silu_sigmoid__",
      "top" : "input.3__silu_sigmoid__",
      "type" : "activation",
      "name" : "input.3__silu_sigmoid__"
    },
    {
      "bottom" : "input.1,input.3__silu_sigmoid__",
      "alpha" : 1,
      "operation" : 1,
      "weights" : {

      },
      "fused_relu" : 0,
      "debug_info" : "input.3",
      "top" : "input.3",
      "type" : "elementwise",
      "name" : "input.3",
      "beta" : 0
    },
    {
      "pad_r" : 1,
      "fused_relu" : 0,
      "fused_tanh" : 0,
      "debug_info" : "input.5",
      "pad_fill_mode" : 0,
      "pad_b" : 1,
      "pad_l" : 1,
      "top" : "input.5",
      "blob_weights" : 7,
      "K" : 48,
      "blob_biases" : 5,
      "stride_x" : 2,
      "name" : "input.5",
      "has_batch_norm" : 0,
      "type" : "convolution",
      "n_groups" : 1,
      "pad_t" : 1,
      "stride_y" : 2,
      "has_biases" : 1,
      "C" : 96,
      "bottom" : "input.3",
      "weights" : {

      },
      "Nx" : 3,
      "pad_mode" : 0,
      "pad_value" : 0,
      "Ny" : 3,
      "n_parallel" : 1
    },
    {
      "bottom" : "input.5",
      "weights" : {

      },
      "mode" : 3,
      "debug_info" : "input.7__silu_sigmoid__",
      "top" : "input.7__silu_sigmoid__",
      "type" : "activation",
      "name" : "input.7__silu_sigmoid__"
    },
    {
      "bottom" : "input.5,input.7__silu_sigmoid__",
      "alpha" : 1,
      "operation" : 1,
      "weights" : {

      },
      "fused_relu" : 0,
      "debug_info" : "input.7",
      "top" : "input.7",
      "type" : "elementwise",
      "name" : "input.7",
      "beta" : 0
    },
    {
      "pad_r" : 0,
      "fused_relu" : 0,
      "fused_tanh" : 0,
      "debug_info" : "input.9",
      "pad_fill_mode" : 0,
      "pad_b" : 0,
      "pad_l" : 0,
      "top" : "input.9",
      "blob_weights" : 11,
      "K" : 96,
      "blob_biases" : 9,
      "name" : "input.9",
      "has_batch_norm" : 0,
      "type" : "convolution",
      "n_groups" : 1,
      "pad_t" : 0,
      "has_biases" : 1,
      "C" : 48,
      "bottom" : "input.7",
      "weights" : {

      },
      "Nx" : 1,
      "pad_mode" : 0,
      "pad_value" : 0,
      "Ny" : 1,
      "n_parallel" : 1
    },
    {
      "bottom" : "input.9",
      "weights" : {

      },
      "mode" : 3,
      "debug_info" : "input.11__silu_sigmoid__",
      "top" : "input.11__silu_sigmoid__",
      "type" : "activation",
      "name" : "input.11__silu_sigmoid__"
    },
    {
      "bottom" : "input.9,input.11__silu_sigmoid__",
      "alpha" : 1,
      "operation" : 1,
      "weights" : {

      },
      "fused_relu" : 0,
      "debug_info" : "input.11",
      "top" : "input.11",
      "type" : "elementwise",
      "name" : "input.11",
      "beta" : 0
    },
    {
      "pad_r" : 0,
      "fused_relu" : 0,
      "fused_tanh" : 0,
      "debug_info" : "input.13",
      "pad_fill_mode" : 0,
      "pad_b" : 0,
      "pad_l" : 0,
      "top" : "input.13",
      "blob_weights" : 15,
      "K" : 48,
      "blob_biases" : 13,
      "name" : "input.13",
      "has_batch_norm" : 0,
      "type" : "convolution",
      "n_groups" : 1,
      "pad_t" : 0,
      "has_biases" : 1,
      "C" : 48,
      "bottom" : "input.11",
      "weights" : {

      },
      "Nx" : 1,
      "pad_mode" : 0,
      "pad_value" : 0,
      "Ny" : 1,
      "n_parallel" : 1
    },
    {
      "bottom" : "input.13",
      "weights" : {

      },
      "mode" : 3,
      "debug_info" : "input.15__silu_sigmoid__",
      "top" : "input.15__silu_sigmoid__",
      "type" : "activation",
      "name" : "input.15__silu_sigmoid__"
    },
    {
      "bottom" : "input.13,input.15__silu_sigmoid__",
      "alpha" : 1,
      "operation" : 1,
      "weights" : {

      },
      "fused_relu" : 0,
      "debug_info" : "input.15",
      "top" : "input.15",
      "type" : "elementwise",
      "name" : "input.15",
      "beta" : 0
    },
    {
      "pad_r" : 1,
      "fused_relu" : 0,
      "fused_tanh" : 0,
      "debug_info" : "input.17",
      "pad_fill_mode" : 0,
      "pad_b" : 1,
      "pad_l" : 1,
      "top" : "input.17",
      "blob_weights" : 19,
      "K" : 48,
      "blob_biases" : 17,
      "name" : "input.17",
      "has_batch_norm" : 0,
      "type" : "convolution",
      "n_groups" : 1,
      "pad_t" : 1,
      "has_biases" : 1,
      "C" : 48,
      "bottom" : "input.15",
      "weights" : {

      },
      "Nx" : 3,
      "pad_mode" : 0,
      "pad_value" : 0,
      "Ny" : 3,
      "n_parallel" : 1
    },
    {
      "bottom" : "input.17",
      "weights" : {

      },
      "mode" : 3,
      "debug_info" : "113__silu_sigmoid__",
      "top" : "113__silu_sigmoid__",
      "type" : "activation",
      "name" : "113__silu_sigmoid__"
    },
    {
      "bottom" : "input.17,113__silu_sigmoid__",
      "alpha" : 1,
      "operation" : 1,
      "weights" : {

      },
      "fused_relu" : 0,
      "debug_info" : "113",
      "top" : "113",
      "type" : "elementwise",
      "name" : "113",
      "beta" : 0
    },
    {
      "bottom" : "input.11,113",
      "alpha" : 1,
      "operation" : 0,
      "weights" : {

      },
      "fused_relu" : 0,
      "debug_info" : "input.19",
      "top" : "input.19",
      "type" : "elementwise",
      "name" : "input.19",
      "beta" : 0
    },
    {
      "pad_r" : 0,
      "fused_relu" : 0,
      "fused_tanh" : 0,
      "debug_info" : "input.21",
      "pad_fill_mode" : 0,
      "pad_b" : 0,
      "pad_l" : 0,
      "top" : "input.21",
      "blob_weights" : 23,
      "K" : 48,
      "blob_biases" : 21,
      "name" : "input.21",
      "has_batch_norm" : 0,
      "type" : "convolution",
      "n_groups" : 1,
      "pad_t" : 0,
      "has_biases" : 1,
      "C" : 48,
      "bottom" : "input.19",
      "weights" : {

      },
      "Nx" : 1,
      "pad_mode" : 0,
      "pad_value" : 0,
      "Ny" : 1,
      "n_parallel" : 1
    },
    {
      "bottom" : "input.21",
      "weights" : {

      },
      "mode" : 3,
      "debug_info" : "input.23__silu_sigmoid__",
      "top" : "input.23__silu_sigmoid__",
      "type" : "activation",
      "name" : "input.23__silu_sigmoid__"
    },
    {
      "bottom" : "input.21,input.23__silu_sigmoid__",
      "alpha" : 1,
      "operation" : 1,
      "weights" : {

      },
      "fused_relu" : 0,
      "debug_info" : "input.23",
      "top" : "input.23",
      "type" : "elementwise",
      "name" : "input.23",
      "beta" : 0
    },
    {
      "pad_r" : 1,
      "fused_relu" : 0,
      "fused_tanh" : 0,
      "debug_info" : "input.25",
      "pad_fill_mode" : 0,
      "pad_b" : 1,
      "pad_l" : 1,
      "top" : "input.25",
      "blob_weights" : 27,
      "K" : 48,
      "blob_biases" : 25,
      "name" : "input.25",
      "has_batch_norm" : 0,
      "type" : "convolution",
      "n_groups" : 1,
      "pad_t" : 1,
      "has_biases" : 1,
      "C" : 48,
      "bottom" : "input.23",
      "weights" : {

      },
      "Nx" : 3,
      "pad_mode" : 0,
      "pad_value" : 0,
      "Ny" : 3,
      "n_parallel" : 1
    },
    {
      "bottom" : "input.25",
      "weights" : {

      },
      "mode" : 3,
      "debug_info" : "134__silu_sigmoid__",
      "top" : "134__silu_sigmoid__",
      "type" : "activation",
      "name" : "134__silu_sigmoid__"
    },
    {
      "bottom" : "input.25,134__silu_sigmoid__",
      "alpha" : 1,
      "operation" : 1,
      "weights" : {

      },
      "fused_relu" : 0,
      "debug_info" : "134",
      "top" : "134",
      "type" : "elementwise",
      "name" : "134",
      "beta" : 0
    },
    {
      "bottom" : "input.19,134",
      "alpha" : 1,
      "operation" : 0,
      "weights" : {

      },
      "fused_relu" : 0,
      "debug_info" : "135",
      "top" : "135",
      "type" : "elementwise",
      "name" : "135",
      "beta" : 0
    },
    {
      "pad_r" : 0,
      "fused_relu" : 0,
      "fused_tanh" : 0,
      "debug_info" : "input.27",
      "pad_fill_mode" : 0,
      "pad_b" : 0,
      "pad_l" : 0,
      "top" : "input.27",
      "blob_weights" : 31,
      "K" : 96,
      "blob_biases" : 29,
      "name" : "input.27",
      "has_batch_norm" : 0,
      "type" : "convolution",
      "n_groups" : 1,
      "pad_t" : 0,
      "has_biases" : 1,
      "C" : 48,
      "bottom" : "input.7",
      "weights" : {

      },
      "Nx" : 1,
      "pad_mode" : 0,
      "pad_value" : 0,
      "Ny" : 1,
      "n_parallel" : 1
    },
    {
      "bottom" : "input.27",
      "weights" : {

      },
      "mode" : 3,
      "debug_info" : "144__silu_sigmoid__",
      "top" : "144__silu_sigmoid__",
      "type" : "activation",
      "name" : "144__silu_sigmoid__"
    },
    {
      "bottom" : "input.27,144__silu_sigmoid__",
      "alpha" : 1,
      "operation" : 1,
      "weights" : {

      },
      "fused_relu" : 0,
      "debug_info" : "144",
      "top" : "144",
      "type" : "elementwise",
      "name" : "144",
      "beta" : 0
    },
    {
      "weights" : {

      },
      "debug_info" : "input.29",
      "top" : "input.29",
      "type" : "concat",
      "name" : "input.29",
      "bottom" : "135,144"
    },
    {
      "pad_r" : 0,
      "fused_relu" : 0,
      "fused_tanh" : 0,
      "debug_info" : "input.31",
      "pad_fill_mode" : 0,
      "pad_b" : 0,
      "pad_l" : 0,
      "top" : "input.31",
      "blob_weights" : 35,
      "K" : 96,
      "blob_biases" : 33,
      "name" : "input.31",
      "has_batch_norm" : 0,
      "type" : "convolution",
      "n_groups" : 1,
      "pad_t" : 0,
      "has_biases" : 1,
      "C" : 96,
      "bottom" : "input.29",
      "weights" : {

      },
      "Nx" : 1,
      "pad_mode" : 0,
      "pad_value" : 0,
      "Ny" : 1,
      "n_parallel" : 1
    },
    {
      "bottom" : "input.31",
      "weights" : {

      },
      "mode" : 3,
      "debug_info" : "input.33__silu_sigmoid__",
      "top" : "input.33__silu_sigmoid__",
      "type" : "activation",
      "name" : "input.33__silu_sigmoid__"
    },
    {
      "bottom" : "input.31,input.33__silu_sigmoid__",
      "alpha" : 1,
      "operation" : 1,
      "weights" : {

      },
      "fused_relu" : 0,
      "debug_info" : "input.33",
      "top" : "input.33",
      "type" : "elementwise",
      "name" : "input.33",
      "beta" : 0
    },
    {
      "pad_r" : 1,
      "fused_relu" : 0,
      "fused_tanh" : 0,
      "debug_info" : "input.35",
      "pad_fill_mode" : 0,
      "pad_b" : 1,
      "pad_l" : 1,
      "top" : "input.35",
      "blob_weights" : 39,
      "K" : 96,
      "blob_biases" : 37,
      "stride_x" : 2,
      "name" : "input.35",
      "has_batch_norm" : 0,
      "type" : "convolution",
      "n_groups" : 1,
      "pad_t" : 1,
      "stride_y" : 2,
      "has_biases" : 1,
      "C" : 192,
      "bottom" : "input.33",
      "weights" : {

      },
      "Nx" : 3,
      "pad_mode" : 0,
      "pad_value" : 0,
      "Ny" : 3,
      "n_parallel" : 1
    },
    {
      "bottom" : "input.35",
      "weights" : {

      },
      "mode" : 3,
      "debug_info" : "input.37__silu_sigmoid__",
      "top" : "input.37__silu_sigmoid__",
      "type" : "activation",
      "name" : "input.37__silu_sigmoid__"
    },
    {
      "bottom" : "input.35,input.37__silu_sigmoid__",
      "alpha" : 1,
      "operation" : 1,
      "weights" : {

      },
      "fused_relu" : 0,
      "debug_info" : "input.37",
      "top" : "input.37",
      "type" : "elementwise",
      "name" : "input.37",
      "beta" : 0
    },
    {
      "pad_r" : 0,
      "fused_relu" : 0,
      "fused_tanh" : 0,
      "debug_info" : "input.39",
      "pad_fill_mode" : 0,
      "pad_b" : 0,
      "pad_l" : 0,
      "top" : "input.39",
      "blob_weights" : 43,
      "K" : 192,
      "blob_biases" : 41,
      "name" : "input.39",
      "has_batch_norm" : 0,
      "type" : "convolution",
      "n_groups" : 1,
      "pad_t" : 0,
      "has_biases" : 1,
      "C" : 96,
      "bottom" : "input.37",
      "weights" : {

      },
      "Nx" : 1,
      "pad_mode" : 0,
      "pad_value" : 0,
      "Ny" : 1,
      "n_parallel" : 1
    },
    {
      "bottom" : "input.39",
      "weights" : {

      },
      "mode" : 3,
      "debug_info" : "input.41__silu_sigmoid__",
      "top" : "input.41__silu_sigmoid__",
      "type" : "activation",
      "name" : "input.41__silu_sigmoid__"
    },
    {
      "bottom" : "input.39,input.41__silu_sigmoid__",
      "alpha" : 1,
      "operation" : 1,
      "weights" : {

      },
      "fused_relu" : 0,
      "debug_info" : "input.41",
      "top" : "input.41",
      "type" : "elementwise",
      "name" : "input.41",
      "beta" : 0
    },
    {
      "pad_r" : 0,
      "fused_relu" : 0,
      "fused_tanh" : 0,
      "debug_info" : "input.43",
      "pad_fill_mode" : 0,
      "pad_b" : 0,
      "pad_l" : 0,
      "top" : "input.43",
      "blob_weights" : 47,
      "K" : 96,
      "blob_biases" : 45,
      "name" : "input.43",
      "has_batch_norm" : 0,
      "type" : "convolution",
      "n_groups" : 1,
      "pad_t" : 0,
      "has_biases" : 1,
      "C" : 96,
      "bottom" : "input.41",
      "weights" : {

      },
      "Nx" : 1,
      "pad_mode" : 0,
      "pad_value" : 0,
      "Ny" : 1,
      "n_parallel" : 1
    },
    {
      "bottom" : "input.43",
      "weights" : {

      },
      "mode" : 3,
      "debug_info" : "input.45__silu_sigmoid__",
      "top" : "input.45__silu_sigmoid__",
      "type" : "activation",
      "name" : "input.45__silu_sigmoid__"
    },
    {
      "bottom" : "input.43,input.45__silu_sigmoid__",
      "alpha" : 1,
      "operation" : 1,
      "weights" : {

      },
      "fused_relu" : 0,
      "debug_info" : "input.45",
      "top" : "input.45",
      "type" : "elementwise",
      "name" : "input.45",
      "beta" : 0
    },
    {
      "pad_r" : 1,
      "fused_relu" : 0,
      "fused_tanh" : 0,
      "debug_info" : "input.47",
      "pad_fill_mode" : 0,
      "pad_b" : 1,
      "pad_l" : 1,
      "top" : "input.47",
      "blob_weights" : 51,
      "K" : 96,
      "blob_biases" : 49,
      "name" : "input.47",
      "has_batch_norm" : 0,
      "type" : "convolution",
      "n_groups" : 1,
      "pad_t" : 1,
      "has_biases" : 1,
      "C" : 96,
      "bottom" : "input.45",
      "weights" : {

      },
      "Nx" : 3,
      "pad_mode" : 0,
      "pad_value" : 0,
      "Ny" : 3,
      "n_parallel" : 1
    },
    {
      "bottom" : "input.47",
      "weights" : {

      },
      "mode" : 3,
      "debug_info" : "201__silu_sigmoid__",
      "top" : "201__silu_sigmoid__",
      "type" : "activation",
      "name" : "201__silu_sigmoid__"
    },
    {
      "bottom" : "input.47,201__silu_sigmoid__",
      "alpha" : 1,
      "operation" : 1,
      "weights" : {

      },
      "fused_relu" : 0,
      "debug_info" : "201",
      "top" : "201",
      "type" : "elementwise",
      "name" : "201",
      "beta" : 0
    },
    {
      "bottom" : "input.41,201",
      "alpha" : 1,
      "operation" : 0,
      "weights" : {

      },
      "fused_relu" : 0,
      "debug_info" : "input.49",
      "top" : "input.49",
      "type" : "elementwise",
      "name" : "input.49",
      "beta" : 0
    },
    {
      "pad_r" : 0,
      "fused_relu" : 0,
      "fused_tanh" : 0,
      "debug_info" : "input.51",
      "pad_fill_mode" : 0,
      "pad_b" : 0,
      "pad_l" : 0,
      "top" : "input.51",
      "blob_weights" : 55,
      "K" : 96,
      "blob_biases" : 53,
      "name" : "input.51",
      "has_batch_norm" : 0,
      "type" : "convolution",
      "n_groups" : 1,
      "pad_t" : 0,
      "has_biases" : 1,
      "C" : 96,
      "bottom" : "input.49",
      "weights" : {

      },
      "Nx" : 1,
      "pad_mode" : 0,
      "pad_value" : 0,
      "Ny" : 1,
      "n_parallel" : 1
    },
    {
      "bottom" : "input.51",
      "weights" : {

      },
      "mode" : 3,
      "debug_info" : "input.53__silu_sigmoid__",
      "top" : "input.53__silu_sigmoid__",
      "type" : "activation",
      "name" : "input.53__silu_sigmoid__"
    },
    {
      "bottom" : "input.51,input.53__silu_sigmoid__",
      "alpha" : 1,
      "operation" : 1,
      "weights" : {

      },
      "fused_relu" : 0,
      "debug_info" : "input.53",
      "top" : "input.53",
      "type" : "elementwise",
      "name" : "input.53",
      "beta" : 0
    },
    {
      "pad_r" : 1,
      "fused_relu" : 0,
      "fused_tanh" : 0,
      "debug_info" : "input.55",
      "pad_fill_mode" : 0,
      "pad_b" : 1,
      "pad_l" : 1,
      "top" : "input.55",
      "blob_weights" : 59,
      "K" : 96,
      "blob_biases" : 57,
      "name" : "input.55",
      "has_batch_norm" : 0,
      "type" : "convolution",
      "n_groups" : 1,
      "pad_t" : 1,
      "has_biases" : 1,
      "C" : 96,
      "bottom" : "input.53",
      "weights" : {

      },
      "Nx" : 3,
      "pad_mode" : 0,
      "pad_value" : 0,
      "Ny" : 3,
      "n_parallel" : 1
    },
    {
      "bottom" : "input.55",
      "weights" : {

      },
      "mode" : 3,
      "debug_info" : "222__silu_sigmoid__",
      "top" : "222__silu_sigmoid__",
      "type" : "activation",
      "name" : "222__silu_sigmoid__"
    },
    {
      "bottom" : "input.55,222__silu_sigmoid__",
      "alpha" : 1,
      "operation" : 1,
      "weights" : {

      },
      "fused_relu" : 0,
      "debug_info" : "222",
      "top" : "222",
      "type" : "elementwise",
      "name" : "222",
      "beta" : 0
    },
    {
      "bottom" : "input.49,222",
      "alpha" : 1,
      "operation" : 0,
      "weights" : {

      },
      "fused_relu" : 0,
      "debug_info" : "input.57",
      "top" : "input.57",
      "type" : "elementwise",
      "name" : "input.57",
      "beta" : 0
    },
    {
      "pad_r" : 0,
      "fused_relu" : 0,
      "fused_tanh" : 0,
      "debug_info" : "input.59",
      "pad_fill_mode" : 0,
      "pad_b" : 0,
      "pad_l" : 0,
      "top" : "input.59",
      "blob_weights" : 63,
      "K" : 96,
      "blob_biases" : 61,
      "name" : "input.59",
      "has_batch_norm" : 0,
      "type" : "convolution",
      "n_groups" : 1,
      "pad_t" : 0,
      "has_biases" : 1,
      "C" : 96,
      "bottom" : "input.57",
      "weights" : {

      },
      "Nx" : 1,
      "pad_mode" : 0,
      "pad_value" : 0,
      "Ny" : 1,
      "n_parallel" : 1
    },
    {
      "bottom" : "input.59",
      "weights" : {

      },
      "mode" : 3,
      "debug_info" : "input.61__silu_sigmoid__",
      "top" : "input.61__silu_sigmoid__",
      "type" : "activation",
      "name" : "input.61__silu_sigmoid__"
    },
    {
      "bottom" : "input.59,input.61__silu_sigmoid__",
      "alpha" : 1,
      "operation" : 1,
      "weights" : {

      },
      "fused_relu" : 0,
      "debug_info" : "input.61",
      "top" : "input.61",
      "type" : "elementwise",
      "name" : "input.61",
      "beta" : 0
    },
    {
      "pad_r" : 1,
      "fused_relu" : 0,
      "fused_tanh" : 0,
      "debug_info" : "input.63",
      "pad_fill_mode" : 0,
      "pad_b" : 1,
      "pad_l" : 1,
      "top" : "input.63",
      "blob_weights" : 67,
      "K" : 96,
      "blob_biases" : 65,
      "name" : "input.63",
      "has_batch_norm" : 0,
      "type" : "convolution",
      "n_groups" : 1,
      "pad_t" : 1,
      "has_biases" : 1,
      "C" : 96,
      "bottom" : "input.61",
      "weights" : {

      },
      "Nx" : 3,
      "pad_mode" : 0,
      "pad_value" : 0,
      "Ny" : 3,
      "n_parallel" : 1
    },
    {
      "bottom" : "input.63",
      "weights" : {

      },
      "mode" : 3,
      "debug_info" : "243__silu_sigmoid__",
      "top" : "243__silu_sigmoid__",
      "type" : "activation",
      "name" : "243__silu_sigmoid__"
    },
    {
      "bottom" : "input.63,243__silu_sigmoid__",
      "alpha" : 1,
      "operation" : 1,
      "weights" : {

      },
      "fused_relu" : 0,
      "debug_info" : "243",
      "top" : "243",
      "type" : "elementwise",
      "name" : "243",
      "beta" : 0
    },
    {
      "bottom" : "input.57,243",
      "alpha" : 1,
      "operation" : 0,
      "weights" : {

      },
      "fused_relu" : 0,
      "debug_info" : "input.65",
      "top" : "input.65",
      "type" : "elementwise",
      "name" : "input.65",
      "beta" : 0
    },
    {
      "pad_r" : 0,
      "fused_relu" : 0,
      "fused_tanh" : 0,
      "debug_info" : "input.67",
      "pad_fill_mode" : 0,
      "pad_b" : 0,
      "pad_l" : 0,
      "top" : "input.67",
      "blob_weights" : 71,
      "K" : 96,
      "blob_biases" : 69,
      "name" : "input.67",
      "has_batch_norm" : 0,
      "type" : "convolution",
      "n_groups" : 1,
      "pad_t" : 0,
      "has_biases" : 1,
      "C" : 96,
      "bottom" : "input.65",
      "weights" : {

      },
      "Nx" : 1,
      "pad_mode" : 0,
      "pad_value" : 0,
      "Ny" : 1,
      "n_parallel" : 1
    },
    {
      "bottom" : "input.67",
      "weights" : {

      },
      "mode" : 3,
      "debug_info" : "input.69__silu_sigmoid__",
      "top" : "input.69__silu_sigmoid__",
      "type" : "activation",
      "name" : "input.69__silu_sigmoid__"
    },
    {
      "bottom" : "input.67,input.69__silu_sigmoid__",
      "alpha" : 1,
      "operation" : 1,
      "weights" : {

      },
      "fused_relu" : 0,
      "debug_info" : "input.69",
      "top" : "input.69",
      "type" : "elementwise",
      "name" : "input.69",
      "beta" : 0
    },
    {
      "pad_r" : 1,
      "fused_relu" : 0,
      "fused_tanh" : 0,
      "debug_info" : "input.71",
      "pad_fill_mode" : 0,
      "pad_b" : 1,
      "pad_l" : 1,
      "top" : "input.71",
      "blob_weights" : 75,
      "K" : 96,
      "blob_biases" : 73,
      "name" : "input.71",
      "has_batch_norm" : 0,
      "type" : "convolution",
      "n_groups" : 1,
      "pad_t" : 1,
      "has_biases" : 1,
      "C" : 96,
      "bottom" : "input.69",
      "weights" : {

      },
      "Nx" : 3,
      "pad_mode" : 0,
      "pad_value" : 0,
      "Ny" : 3,
      "n_parallel" : 1
    },
    {
      "bottom" : "input.71",
      "weights" : {

      },
      "mode" : 3,
      "debug_info" : "264__silu_sigmoid__",
      "top" : "264__silu_sigmoid__",
      "type" : "activation",
      "name" : "264__silu_sigmoid__"
    },
    {
      "bottom" : "input.71,264__silu_sigmoid__",
      "alpha" : 1,
      "operation" : 1,
      "weights" : {

      },
      "fused_relu" : 0,
      "debug_info" : "264",
      "top" : "264",
      "type" : "elementwise",
      "name" : "264",
      "beta" : 0
    },
    {
      "bottom" : "input.65,264",
      "alpha" : 1,
      "operation" : 0,
      "weights" : {

      },
      "fused_relu" : 0,
      "debug_info" : "265",
      "top" : "265",
      "type" : "elementwise",
      "name" : "265",
      "beta" : 0
    },
    {
      "pad_r" : 0,
      "fused_relu" : 0,
      "fused_tanh" : 0,
      "debug_info" : "input.73",
      "pad_fill_mode" : 0,
      "pad_b" : 0,
      "pad_l" : 0,
      "top" : "input.73",
      "blob_weights" : 79,
      "K" : 192,
      "blob_biases" : 77,
      "name" : "input.73",
      "has_batch_norm" : 0,
      "type" : "convolution",
      "n_groups" : 1,
      "pad_t" : 0,
      "has_biases" : 1,
      "C" : 96,
      "bottom" : "input.37",
      "weights" : {

      },
      "Nx" : 1,
      "pad_mode" : 0,
      "pad_value" : 0,
      "Ny" : 1,
      "n_parallel" : 1
    },
    {
      "bottom" : "input.73",
      "weights" : {

      },
      "mode" : 3,
      "debug_info" : "274__silu_sigmoid__",
      "top" : "274__silu_sigmoid__",
      "type" : "activation",
      "name" : "274__silu_sigmoid__"
    },
    {
      "bottom" : "input.73,274__silu_sigmoid__",
      "alpha" : 1,
      "operation" : 1,
      "weights" : {

      },
      "fused_relu" : 0,
      "debug_info" : "274",
      "top" : "274",
      "type" : "elementwise",
      "name" : "274",
      "beta" : 0
    },
    {
      "weights" : {

      },
      "debug_info" : "input.75",
      "top" : "input.75",
      "type" : "concat",
      "name" : "input.75",
      "bottom" : "265,274"
    },
    {
      "pad_r" : 0,
      "fused_relu" : 0,
      "fused_tanh" : 0,
      "debug_info" : "input.77",
      "pad_fill_mode" : 0,
      "pad_b" : 0,
      "pad_l" : 0,
      "top" : "input.77",
      "blob_weights" : 83,
      "K" : 192,
      "blob_biases" : 81,
      "name" : "input.77",
      "has_batch_norm" : 0,
      "type" : "convolution",
      "n_groups" : 1,
      "pad_t" : 0,
      "has_biases" : 1,
      "C" : 192,
      "bottom" : "input.75",
      "weights" : {

      },
      "Nx" : 1,
      "pad_mode" : 0,
      "pad_value" : 0,
      "Ny" : 1,
      "n_parallel" : 1
    },
    {
      "bottom" : "input.77",
      "weights" : {

      },
      "mode" : 3,
      "debug_info" : "input.79__silu_sigmoid__",
      "top" : "input.79__silu_sigmoid__",
      "type" : "activation",
      "name" : "input.79__silu_sigmoid__"
    },
    {
      "bottom" : "input.77,input.79__silu_sigmoid__",
      "alpha" : 1,
      "operation" : 1,
      "weights" : {

      },
      "fused_relu" : 0,
      "debug_info" : "input.79",
      "top" : "input.79",
      "type" : "elementwise",
      "name" : "input.79",
      "beta" : 0
    },
    {
      "pad_r" : 1,
      "fused_relu" : 0,
      "fused_tanh" : 0,
      "debug_info" : "input.81",
      "pad_fill_mode" : 0,
      "pad_b" : 1,
      "pad_l" : 1,
      "top" : "input.81",
      "blob_weights" : 87,
      "K" : 192,
      "blob_biases" : 85,
      "stride_x" : 2,
      "name" : "input.81",
      "has_batch_norm" : 0,
      "type" : "convolution",
      "n_groups" : 1,
      "pad_t" : 1,
      "stride_y" : 2,
      "has_biases" : 1,
      "C" : 384,
      "bottom" : "input.79",
      "weights" : {

      },
      "Nx" : 3,
      "pad_mode" : 0,
      "pad_value" : 0,
      "Ny" : 3,
      "n_parallel" : 1
    },
    {
      "bottom" : "input.81",
      "weights" : {

      },
      "mode" : 3,
      "debug_info" : "input.83__silu_sigmoid__",
      "top" : "input.83__silu_sigmoid__",
      "type" : "activation",
      "name" : "input.83__silu_sigmoid__"
    },
    {
      "bottom" : "input.81,input.83__silu_sigmoid__",
      "alpha" : 1,
      "operation" : 1,
      "weights" : {

      },
      "fused_relu" : 0,
      "debug_info" : "input.83",
      "top" : "input.83",
      "type" : "elementwise",
      "name" : "input.83",
      "beta" : 0
    },
    {
      "pad_r" : 0,
      "fused_relu" : 0,
      "fused_tanh" : 0,
      "debug_info" : "input.85",
      "pad_fill_mode" : 0,
      "pad_b" : 0,
      "pad_l" : 0,
      "top" : "input.85",
      "blob_weights" : 91,
      "K" : 384,
      "blob_biases" : 89,
      "name" : "input.85",
      "has_batch_norm" : 0,
      "type" : "convolution",
      "n_groups" : 1,
      "pad_t" : 0,
      "has_biases" : 1,
      "C" : 192,
      "bottom" : "input.83",
      "weights" : {

      },
      "Nx" : 1,
      "pad_mode" : 0,
      "pad_value" : 0,
      "Ny" : 1,
      "n_parallel" : 1
    },
    {
      "bottom" : "input.85",
      "weights" : {

      },
      "mode" : 3,
      "debug_info" : "input.87__silu_sigmoid__",
      "top" : "input.87__silu_sigmoid__",
      "type" : "activation",
      "name" : "input.87__silu_sigmoid__"
    },
    {
      "bottom" : "input.85,input.87__silu_sigmoid__",
      "alpha" : 1,
      "operation" : 1,
      "weights" : {

      },
      "fused_relu" : 0,
      "debug_info" : "input.87",
      "top" : "input.87",
      "type" : "elementwise",
      "name" : "input.87",
      "beta" : 0
    },
    {
      "pad_r" : 0,
      "fused_relu" : 0,
      "fused_tanh" : 0,
      "debug_info" : "input.89",
      "pad_fill_mode" : 0,
      "pad_b" : 0,
      "pad_l" : 0,
      "top" : "input.89",
      "blob_weights" : 95,
      "K" : 192,
      "blob_biases" : 93,
      "name" : "input.89",
      "has_batch_norm" : 0,
      "type" : "convolution",
      "n_groups" : 1,
      "pad_t" : 0,
      "has_biases" : 1,
      "C" : 192,
      "bottom" : "input.87",
      "weights" : {

      },
      "Nx" : 1,
      "pad_mode" : 0,
      "pad_value" : 0,
      "Ny" : 1,
      "n_parallel" : 1
    },
    {
      "bottom" : "input.89",
      "weights" : {

      },
      "mode" : 3,
      "debug_info" : "input.91__silu_sigmoid__",
      "top" : "input.91__silu_sigmoid__",
      "type" : "activation",
      "name" : "input.91__silu_sigmoid__"
    },
    {
      "bottom" : "input.89,input.91__silu_sigmoid__",
      "alpha" : 1,
      "operation" : 1,
      "weights" : {

      },
      "fused_relu" : 0,
      "debug_info" : "input.91",
      "top" : "input.91",
      "type" : "elementwise",
      "name" : "input.91",
      "beta" : 0
    },
    {
      "pad_r" : 1,
      "fused_relu" : 0,
      "fused_tanh" : 0,
      "debug_info" : "input.93",
      "pad_fill_mode" : 0,
      "pad_b" : 1,
      "pad_l" : 1,
      "top" : "input.93",
      "blob_weights" : 99,
      "K" : 192,
      "blob_biases" : 97,
      "name" : "input.93",
      "has_batch_norm" : 0,
      "type" : "convolution",
      "n_groups" : 1,
      "pad_t" : 1,
      "has_biases" : 1,
      "C" : 192,
      "bottom" : "input.91",
      "weights" : {

      },
      "Nx" : 3,
      "pad_mode" : 0,
      "pad_value" : 0,
      "Ny" : 3,
      "n_parallel" : 1
    },
    {
      "bottom" : "input.93",
      "weights" : {

      },
      "mode" : 3,
      "debug_info" : "333__silu_sigmoid__",
      "top" : "333__silu_sigmoid__",
      "type" : "activation",
      "name" : "333__silu_sigmoid__"
    },
    {
      "bottom" : "input.93,333__silu_sigmoid__",
      "alpha" : 1,
      "operation" : 1,
      "weights" : {

      },
      "fused_relu" : 0,
      "debug_info" : "333",
      "top" : "333",
      "type" : "elementwise",
      "name" : "333",
      "beta" : 0
    },
    {
      "bottom" : "input.87,333",
      "alpha" : 1,
      "operation" : 0,
      "weights" : {

      },
      "fused_relu" : 0,
      "debug_info" : "input.95",
      "top" : "input.95",
      "type" : "elementwise",
      "name" : "input.95",
      "beta" : 0
    },
    {
      "pad_r" : 0,
      "fused_relu" : 0,
      "fused_tanh" : 0,
      "debug_info" : "input.97",
      "pad_fill_mode" : 0,
      "pad_b" : 0,
      "pad_l" : 0,
      "top" : "input.97",
      "blob_weights" : 103,
      "K" : 192,
      "blob_biases" : 101,
      "name" : "input.97",
      "has_batch_norm" : 0,
      "type" : "convolution",
      "n_groups" : 1,
      "pad_t" : 0,
      "has_biases" : 1,
      "C" : 192,
      "bottom" : "input.95",
      "weights" : {

      },
      "Nx" : 1,
      "pad_mode" : 0,
      "pad_value" : 0,
      "Ny" : 1,
      "n_parallel" : 1
    },
    {
      "bottom" : "input.97",
      "weights" : {

      },
      "mode" : 3,
      "debug_info" : "input.99__silu_sigmoid__",
      "top" : "input.99__silu_sigmoid__",
      "type" : "activation",
      "name" : "input.99__silu_sigmoid__"
    },
    {
      "bottom" : "input.97,input.99__silu_sigmoid__",
      "alpha" : 1,
      "operation" : 1,
      "weights" : {

      },
      "fused_relu" : 0,
      "debug_info" : "input.99",
      "top" : "input.99",
      "type" : "elementwise",
      "name" : "input.99",
      "beta" : 0
    },
    {
      "pad_r" : 1,
      "fused_relu" : 0,
      "fused_tanh" : 0,
      "debug_info" : "input.101",
      "pad_fill_mode" : 0,
      "pad_b" : 1,
      "pad_l" : 1,
      "top" : "input.101",
      "blob_weights" : 107,
      "K" : 192,
      "blob_biases" : 105,
      "name" : "input.101",
      "has_batch_norm" : 0,
      "type" : "convolution",
      "n_groups" : 1,
      "pad_t" : 1,
      "has_biases" : 1,
      "C" : 192,
      "bottom" : "input.99",
      "weights" : {

      },
      "Nx" : 3,
      "pad_mode" : 0,
      "pad_value" : 0,
      "Ny" : 3,
      "n_parallel" : 1
    },
    {
      "bottom" : "input.101",
      "weights" : {

      },
      "mode" : 3,
      "debug_info" : "354__silu_sigmoid__",
      "top" : "354__silu_sigmoid__",
      "type" : "activation",
      "name" : "354__silu_sigmoid__"
    },
    {
      "bottom" : "input.101,354__silu_sigmoid__",
      "alpha" : 1,
      "operation" : 1,
      "weights" : {

      },
      "fused_relu" : 0,
      "debug_info" : "354",
      "top" : "354",
      "type" : "elementwise",
      "name" : "354",
      "beta" : 0
    },
    {
      "bottom" : "input.95,354",
      "alpha" : 1,
      "operation" : 0,
      "weights" : {

      },
      "fused_relu" : 0,
      "debug_info" : "input.103",
      "top" : "input.103",
      "type" : "elementwise",
      "name" : "input.103",
      "beta" : 0
    },
    {
      "pad_r" : 0,
      "fused_relu" : 0,
      "fused_tanh" : 0,
      "debug_info" : "input.105",
      "pad_fill_mode" : 0,
      "pad_b" : 0,
      "pad_l" : 0,
      "top" : "input.105",
      "blob_weights" : 111,
      "K" : 192,
      "blob_biases" : 109,
      "name" : "input.105",
      "has_batch_norm" : 0,
      "type" : "convolution",
      "n_groups" : 1,
      "pad_t" : 0,
      "has_biases" : 1,
      "C" : 192,
      "bottom" : "input.103",
      "weights" : {

      },
      "Nx" : 1,
      "pad_mode" : 0,
      "pad_value" : 0,
      "Ny" : 1,
      "n_parallel" : 1
    },
    {
      "bottom" : "input.105",
      "weights" : {

      },
      "mode" : 3,
      "debug_info" : "input.107__silu_sigmoid__",
      "top" : "input.107__silu_sigmoid__",
      "type" : "activation",
      "name" : "input.107__silu_sigmoid__"
    },
    {
      "bottom" : "input.105,input.107__silu_sigmoid__",
      "alpha" : 1,
      "operation" : 1,
      "weights" : {

      },
      "fused_relu" : 0,
      "debug_info" : "input.107",
      "top" : "input.107",
      "type" : "elementwise",
      "name" : "input.107",
      "beta" : 0
    },
    {
      "pad_r" : 1,
      "fused_relu" : 0,
      "fused_tanh" : 0,
      "debug_info" : "input.109",
      "pad_fill_mode" : 0,
      "pad_b" : 1,
      "pad_l" : 1,
      "top" : "input.109",
      "blob_weights" : 115,
      "K" : 192,
      "blob_biases" : 113,
      "name" : "input.109",
      "has_batch_norm" : 0,
      "type" : "convolution",
      "n_groups" : 1,
      "pad_t" : 1,
      "has_biases" : 1,
      "C" : 192,
      "bottom" : "input.107",
      "weights" : {

      },
      "Nx" : 3,
      "pad_mode" : 0,
      "pad_value" : 0,
      "Ny" : 3,
      "n_parallel" : 1
    },
    {
      "bottom" : "input.109",
      "weights" : {

      },
      "mode" : 3,
      "debug_info" : "375__silu_sigmoid__",
      "top" : "375__silu_sigmoid__",
      "type" : "activation",
      "name" : "375__silu_sigmoid__"
    },
    {
      "bottom" : "input.109,375__silu_sigmoid__",
      "alpha" : 1,
      "operation" : 1,
      "weights" : {

      },
      "fused_relu" : 0,
      "debug_info" : "375",
      "top" : "375",
      "type" : "elementwise",
      "name" : "375",
      "beta" : 0
    },
    {
      "bottom" : "input.103,375",
      "alpha" : 1,
      "operation" : 0,
      "weights" : {

      },
      "fused_relu" : 0,
      "debug_info" : "input.111",
      "top" : "input.111",
      "type" : "elementwise",
      "name" : "input.111",
      "beta" : 0
    },
    {
      "pad_r" : 0,
      "fused_relu" : 0,
      "fused_tanh" : 0,
      "debug_info" : "input.113",
      "pad_fill_mode" : 0,
      "pad_b" : 0,
      "pad_l" : 0,
      "top" : "input.113",
      "blob_weights" : 119,
      "K" : 192,
      "blob_biases" : 117,
      "name" : "input.113",
      "has_batch_norm" : 0,
      "type" : "convolution",
      "n_groups" : 1,
      "pad_t" : 0,
      "has_biases" : 1,
      "C" : 192,
      "bottom" : "input.111",
      "weights" : {

      },
      "Nx" : 1,
      "pad_mode" : 0,
      "pad_value" : 0,
      "Ny" : 1,
      "n_parallel" : 1
    },
    {
      "bottom" : "input.113",
      "weights" : {

      },
      "mode" : 3,
      "debug_info" : "input.115__silu_sigmoid__",
      "top" : "input.115__silu_sigmoid__",
      "type" : "activation",
      "name" : "input.115__silu_sigmoid__"
    },
    {
      "bottom" : "input.113,input.115__silu_sigmoid__",
      "alpha" : 1,
      "operation" : 1,
      "weights" : {

      },
      "fused_relu" : 0,
      "debug_info" : "input.115",
      "top" : "input.115",
      "type" : "elementwise",
      "name" : "input.115",
      "beta" : 0
    },
    {
      "pad_r" : 1,
      "fused_relu" : 0,
      "fused_tanh" : 0,
      "debug_info" : "input.117",
      "pad_fill_mode" : 0,
      "pad_b" : 1,
      "pad_l" : 1,
      "top" : "input.117",
      "blob_weights" : 123,
      "K" : 192,
      "blob_biases" : 121,
      "name" : "input.117",
      "has_batch_norm" : 0,
      "type" : "convolution",
      "n_groups" : 1,
      "pad_t" : 1,
      "has_biases" : 1,
      "C" : 192,
      "bottom" : "input.115",
      "weights" : {

      },
      "Nx" : 3,
      "pad_mode" : 0,
      "pad_value" : 0,
      "Ny" : 3,
      "n_parallel" : 1
    },
    {
      "bottom" : "input.117",
      "weights" : {

      },
      "mode" : 3,
      "debug_info" : "396__silu_sigmoid__",
      "top" : "396__silu_sigmoid__",
      "type" : "activation",
      "name" : "396__silu_sigmoid__"
    },
    {
      "bottom" : "input.117,396__silu_sigmoid__",
      "alpha" : 1,
      "operation" : 1,
      "weights" : {

      },
      "fused_relu" : 0,
      "debug_info" : "396",
      "top" : "396",
      "type" : "elementwise",
      "name" : "396",
      "beta" : 0
    },
    {
      "bottom" : "input.111,396",
      "alpha" : 1,
      "operation" : 0,
      "weights" : {

      },
      "fused_relu" : 0,
      "debug_info" : "input.119",
      "top" : "input.119",
      "type" : "elementwise",
      "name" : "input.119",
      "beta" : 0
    },
    {
      "pad_r" : 0,
      "fused_relu" : 0,
      "fused_tanh" : 0,
      "debug_info" : "input.121",
      "pad_fill_mode" : 0,
      "pad_b" : 0,
      "pad_l" : 0,
      "top" : "input.121",
      "blob_weights" : 127,
      "K" : 192,
      "blob_biases" : 125,
      "name" : "input.121",
      "has_batch_norm" : 0,
      "type" : "convolution",
      "n_groups" : 1,
      "pad_t" : 0,
      "has_biases" : 1,
      "C" : 192,
      "bottom" : "input.119",
      "weights" : {

      },
      "Nx" : 1,
      "pad_mode" : 0,
      "pad_value" : 0,
      "Ny" : 1,
      "n_parallel" : 1
    },
    {
      "bottom" : "input.121",
      "weights" : {

      },
      "mode" : 3,
      "debug_info" : "input.123__silu_sigmoid__",
      "top" : "input.123__silu_sigmoid__",
      "type" : "activation",
      "name" : "input.123__silu_sigmoid__"
    },
    {
      "bottom" : "input.121,input.123__silu_sigmoid__",
      "alpha" : 1,
      "operation" : 1,
      "weights" : {

      },
      "fused_relu" : 0,
      "debug_info" : "input.123",
      "top" : "input.123",
      "type" : "elementwise",
      "name" : "input.123",
      "beta" : 0
    },
    {
      "pad_r" : 1,
      "fused_relu" : 0,
      "fused_tanh" : 0,
      "debug_info" : "input.125",
      "pad_fill_mode" : 0,
      "pad_b" : 1,
      "pad_l" : 1,
      "top" : "input.125",
      "blob_weights" : 131,
      "K" : 192,
      "blob_biases" : 129,
      "name" : "input.125",
      "has_batch_norm" : 0,
      "type" : "convolution",
      "n_groups" : 1,
      "pad_t" : 1,
      "has_biases" : 1,
      "C" : 192,
      "bottom" : "input.123",
      "weights" : {

      },
      "Nx" : 3,
      "pad_mode" : 0,
      "pad_value" : 0,
      "Ny" : 3,
      "n_parallel" : 1
    },
    {
      "bottom" : "input.125",
      "weights" : {

      },
      "mode" : 3,
      "debug_info" : "417__silu_sigmoid__",
      "top" : "417__silu_sigmoid__",
      "type" : "activation",
      "name" : "417__silu_sigmoid__"
    },
    {
      "bottom" : "input.125,417__silu_sigmoid__",
      "alpha" : 1,
      "operation" : 1,
      "weights" : {

      },
      "fused_relu" : 0,
      "debug_info" : "417",
      "top" : "417",
      "type" : "elementwise",
      "name" : "417",
      "beta" : 0
    },
    {
      "bottom" : "input.119,417",
      "alpha" : 1,
      "operation" : 0,
      "weights" : {

      },
      "fused_relu" : 0,
      "debug_info" : "input.127",
      "top" : "input.127",
      "type" : "elementwise",
      "name" : "input.127",
      "beta" : 0
    },
    {
      "pad_r" : 0,
      "fused_relu" : 0,
      "fused_tanh" : 0,
      "debug_info" : "input.129",
      "pad_fill_mode" : 0,
      "pad_b" : 0,
      "pad_l" : 0,
      "top" : "input.129",
      "blob_weights" : 135,
      "K" : 192,
      "blob_biases" : 133,
      "name" : "input.129",
      "has_batch_norm" : 0,
      "type" : "convolution",
      "n_groups" : 1,
      "pad_t" : 0,
      "has_biases" : 1,
      "C" : 192,
      "bottom" : "input.127",
      "weights" : {

      },
      "Nx" : 1,
      "pad_mode" : 0,
      "pad_value" : 0,
      "Ny" : 1,
      "n_parallel" : 1
    },
    {
      "bottom" : "input.129",
      "weights" : {

      },
      "mode" : 3,
      "debug_info" : "input.131__silu_sigmoid__",
      "top" : "input.131__silu_sigmoid__",
      "type" : "activation",
      "name" : "input.131__silu_sigmoid__"
    },
    {
      "bottom" : "input.129,input.131__silu_sigmoid__",
      "alpha" : 1,
      "operation" : 1,
      "weights" : {

      },
      "fused_relu" : 0,
      "debug_info" : "input.131",
      "top" : "input.131",
      "type" : "elementwise",
      "name" : "input.131",
      "beta" : 0
    },
    {
      "pad_r" : 1,
      "fused_relu" : 0,
      "fused_tanh" : 0,
      "debug_info" : "input.133",
      "pad_fill_mode" : 0,
      "pad_b" : 1,
      "pad_l" : 1,
      "top" : "input.133",
      "blob_weights" : 139,
      "K" : 192,
      "blob_biases" : 137,
      "name" : "input.133",
      "has_batch_norm" : 0,
      "type" : "convolution",
      "n_groups" : 1,
      "pad_t" : 1,
      "has_biases" : 1,
      "C" : 192,
      "bottom" : "input.131",
      "weights" : {

      },
      "Nx" : 3,
      "pad_mode" : 0,
      "pad_value" : 0,
      "Ny" : 3,
      "n_parallel" : 1
    },
    {
      "bottom" : "input.133",
      "weights" : {

      },
      "mode" : 3,
      "debug_info" : "438__silu_sigmoid__",
      "top" : "438__silu_sigmoid__",
      "type" : "activation",
      "name" : "438__silu_sigmoid__"
    },
    {
      "bottom" : "input.133,438__silu_sigmoid__",
      "alpha" : 1,
      "operation" : 1,
      "weights" : {

      },
      "fused_relu" : 0,
      "debug_info" : "438",
      "top" : "438",
      "type" : "elementwise",
      "name" : "438",
      "beta" : 0
    },
    {
      "bottom" : "input.127,438",
      "alpha" : 1,
      "operation" : 0,
      "weights" : {

      },
      "fused_relu" : 0,
      "debug_info" : "439",
      "top" : "439",
      "type" : "elementwise",
      "name" : "439",
      "beta" : 0
    },
    {
      "pad_r" : 0,
      "fused_relu" : 0,
      "fused_tanh" : 0,
      "debug_info" : "input.135",
      "pad_fill_mode" : 0,
      "pad_b" : 0,
      "pad_l" : 0,
      "top" : "input.135",
      "blob_weights" : 143,
      "K" : 384,
      "blob_biases" : 141,
      "name" : "input.135",
      "has_batch_norm" : 0,
      "type" : "convolution",
      "n_groups" : 1,
      "pad_t" : 0,
      "has_biases" : 1,
      "C" : 192,
      "bottom" : "input.83",
      "weights" : {

      },
      "Nx" : 1,
      "pad_mode" : 0,
      "pad_value" : 0,
      "Ny" : 1,
      "n_parallel" : 1
    },
    {
      "bottom" : "input.135",
      "weights" : {

      },
      "mode" : 3,
      "debug_info" : "448__silu_sigmoid__",
      "top" : "448__silu_sigmoid__",
      "type" : "activation",
      "name" : "448__silu_sigmoid__"
    },
    {
      "bottom" : "input.135,448__silu_sigmoid__",
      "alpha" : 1,
      "operation" : 1,
      "weights" : {

      },
      "fused_relu" : 0,
      "debug_info" : "448",
      "top" : "448",
      "type" : "elementwise",
      "name" : "448",
      "beta" : 0
    },
    {
      "weights" : {

      },
      "debug_info" : "input.137",
      "top" : "input.137",
      "type" : "concat",
      "name" : "input.137",
      "bottom" : "439,448"
    },
    {
      "pad_r" : 0,
      "fused_relu" : 0,
      "fused_tanh" : 0,
      "debug_info" : "input.139",
      "pad_fill_mode" : 0,
      "pad_b" : 0,
      "pad_l" : 0,
      "top" : "input.139",
      "blob_weights" : 147,
      "K" : 384,
      "blob_biases" : 145,
      "name" : "input.139",
      "has_batch_norm" : 0,
      "type" : "convolution",
      "n_groups" : 1,
      "pad_t" : 0,
      "has_biases" : 1,
      "C" : 384,
      "bottom" : "input.137",
      "weights" : {

      },
      "Nx" : 1,
      "pad_mode" : 0,
      "pad_value" : 0,
      "Ny" : 1,
      "n_parallel" : 1
    },
    {
      "bottom" : "input.139",
      "weights" : {

      },
      "mode" : 3,
      "debug_info" : "input.141__silu_sigmoid__",
      "top" : "input.141__silu_sigmoid__",
      "type" : "activation",
      "name" : "input.141__silu_sigmoid__"
    },
    {
      "bottom" : "input.139,input.141__silu_sigmoid__",
      "alpha" : 1,
      "operation" : 1,
      "weights" : {

      },
      "fused_relu" : 0,
      "debug_info" : "input.141",
      "top" : "input.141",
      "type" : "elementwise",
      "name" : "input.141",
      "beta" : 0
    },
    {
      "pad_r" : 1,
      "fused_relu" : 0,
      "fused_tanh" : 0,
      "debug_info" : "input.143",
      "pad_fill_mode" : 0,
      "pad_b" : 1,
      "pad_l" : 1,
      "top" : "input.143",
      "blob_weights" : 151,
      "K" : 384,
      "blob_biases" : 149,
      "stride_x" : 2,
      "name" : "input.143",
      "has_batch_norm" : 0,
      "type" : "convolution",
      "n_groups" : 1,
      "pad_t" : 1,
      "stride_y" : 2,
      "has_biases" : 1,
      "C" : 768,
      "bottom" : "input.141",
      "weights" : {

      },
      "Nx" : 3,
      "pad_mode" : 0,
      "pad_value" : 0,
      "Ny" : 3,
      "n_parallel" : 1
    },
    {
      "bottom" : "input.143",
      "weights" : {

      },
      "mode" : 3,
      "debug_info" : "input.145__silu_sigmoid__",
      "top" : "input.145__silu_sigmoid__",
      "type" : "activation",
      "name" : "input.145__silu_sigmoid__"
    },
    {
      "bottom" : "input.143,input.145__silu_sigmoid__",
      "alpha" : 1,
      "operation" : 1,
      "weights" : {

      },
      "fused_relu" : 0,
      "debug_info" : "input.145",
      "top" : "input.145",
      "type" : "elementwise",
      "name" : "input.145",
      "beta" : 0
    },
    {
      "pad_r" : 0,
      "fused_relu" : 0,
      "fused_tanh" : 0,
      "debug_info" : "input.147",
      "pad_fill_mode" : 0,
      "pad_b" : 0,
      "pad_l" : 0,
      "top" : "input.147",
      "blob_weights" : 155,
      "K" : 768,
      "blob_biases" : 153,
      "name" : "input.147",
      "has_batch_norm" : 0,
      "type" : "convolution",
      "n_groups" : 1,
      "pad_t" : 0,
      "has_biases" : 1,
      "C" : 384,
      "bottom" : "input.145",
      "weights" : {

      },
      "Nx" : 1,
      "pad_mode" : 0,
      "pad_value" : 0,
      "Ny" : 1,
      "n_parallel" : 1
    },
    {
      "bottom" : "input.147",
      "weights" : {

      },
      "mode" : 3,
      "debug_info" : "input.149__silu_sigmoid__",
      "top" : "input.149__silu_sigmoid__",
      "type" : "activation",
      "name" : "input.149__silu_sigmoid__"
    },
    {
      "bottom" : "input.147,input.149__silu_sigmoid__",
      "alpha" : 1,
      "operation" : 1,
      "weights" : {

      },
      "fused_relu" : 0,
      "debug_info" : "input.149",
      "top" : "input.149",
      "type" : "elementwise",
      "name" : "input.149",
      "beta" : 0
    },
    {
      "pad_r" : 0,
      "fused_relu" : 0,
      "fused_tanh" : 0,
      "debug_info" : "input.151",
      "pad_fill_mode" : 0,
      "pad_b" : 0,
      "pad_l" : 0,
      "top" : "input.151",
      "blob_weights" : 159,
      "K" : 384,
      "blob_biases" : 157,
      "name" : "input.151",
      "has_batch_norm" : 0,
      "type" : "convolution",
      "n_groups" : 1,
      "pad_t" : 0,
      "has_biases" : 1,
      "C" : 384,
      "bottom" : "input.149",
      "weights" : {

      },
      "Nx" : 1,
      "pad_mode" : 0,
      "pad_value" : 0,
      "Ny" : 1,
      "n_parallel" : 1
    },
    {
      "bottom" : "input.151",
      "weights" : {

      },
      "mode" : 3,
      "debug_info" : "input.153__silu_sigmoid__",
      "top" : "input.153__silu_sigmoid__",
      "type" : "activation",
      "name" : "input.153__silu_sigmoid__"
    },
    {
      "bottom" : "input.151,input.153__silu_sigmoid__",
      "alpha" : 1,
      "operation" : 1,
      "weights" : {

      },
      "fused_relu" : 0,
      "debug_info" : "input.153",
      "top" : "input.153",
      "type" : "elementwise",
      "name" : "input.153",
      "beta" : 0
    },
    {
      "pad_r" : 1,
      "fused_relu" : 0,
      "fused_tanh" : 0,
      "debug_info" : "input.155",
      "pad_fill_mode" : 0,
      "pad_b" : 1,
      "pad_l" : 1,
      "top" : "input.155",
      "blob_weights" : 163,
      "K" : 384,
      "blob_biases" : 161,
      "name" : "input.155",
      "has_batch_norm" : 0,
      "type" : "convolution",
      "n_groups" : 1,
      "pad_t" : 1,
      "has_biases" : 1,
      "C" : 384,
      "bottom" : "input.153",
      "weights" : {

      },
      "Nx" : 3,
      "pad_mode" : 0,
      "pad_value" : 0,
      "Ny" : 3,
      "n_parallel" : 1
    },
    {
      "bottom" : "input.155",
      "weights" : {

      },
      "mode" : 3,
      "debug_info" : "503__silu_sigmoid__",
      "top" : "503__silu_sigmoid__",
      "type" : "activation",
      "name" : "503__silu_sigmoid__"
    },
    {
      "bottom" : "input.155,503__silu_sigmoid__",
      "alpha" : 1,
      "operation" : 1,
      "weights" : {

      },
      "fused_relu" : 0,
      "debug_info" : "503",
      "top" : "503",
      "type" : "elementwise",
      "name" : "503",
      "beta" : 0
    },
    {
      "bottom" : "input.149,503",
      "alpha" : 1,
      "operation" : 0,
      "weights" : {

      },
      "fused_relu" : 0,
      "debug_info" : "input.157",
      "top" : "input.157",
      "type" : "elementwise",
      "name" : "input.157",
      "beta" : 0
    },
    {
      "pad_r" : 0,
      "fused_relu" : 0,
      "fused_tanh" : 0,
      "debug_info" : "input.159",
      "pad_fill_mode" : 0,
      "pad_b" : 0,
      "pad_l" : 0,
      "top" : "input.159",
      "blob_weights" : 167,
      "K" : 384,
      "blob_biases" : 165,
      "name" : "input.159",
      "has_batch_norm" : 0,
      "type" : "convolution",
      "n_groups" : 1,
      "pad_t" : 0,
      "has_biases" : 1,
      "C" : 384,
      "bottom" : "input.157",
      "weights" : {

      },
      "Nx" : 1,
      "pad_mode" : 0,
      "pad_value" : 0,
      "Ny" : 1,
      "n_parallel" : 1
    },
    {
      "bottom" : "input.159",
      "weights" : {

      },
      "mode" : 3,
      "debug_info" : "input.161__silu_sigmoid__",
      "top" : "input.161__silu_sigmoid__",
      "type" : "activation",
      "name" : "input.161__silu_sigmoid__"
    },
    {
      "bottom" : "input.159,input.161__silu_sigmoid__",
      "alpha" : 1,
      "operation" : 1,
      "weights" : {

      },
      "fused_relu" : 0,
      "debug_info" : "input.161",
      "top" : "input.161",
      "type" : "elementwise",
      "name" : "input.161",
      "beta" : 0
    },
    {
      "pad_r" : 1,
      "fused_relu" : 0,
      "fused_tanh" : 0,
      "debug_info" : "input.163",
      "pad_fill_mode" : 0,
      "pad_b" : 1,
      "pad_l" : 1,
      "top" : "input.163",
      "blob_weights" : 171,
      "K" : 384,
      "blob_biases" : 169,
      "name" : "input.163",
      "has_batch_norm" : 0,
      "type" : "convolution",
      "n_groups" : 1,
      "pad_t" : 1,
      "has_biases" : 1,
      "C" : 384,
      "bottom" : "input.161",
      "weights" : {

      },
      "Nx" : 3,
      "pad_mode" : 0,
      "pad_value" : 0,
      "Ny" : 3,
      "n_parallel" : 1
    },
    {
      "bottom" : "input.163",
      "weights" : {

      },
      "mode" : 3,
      "debug_info" : "524__silu_sigmoid__",
      "top" : "524__silu_sigmoid__",
      "type" : "activation",
      "name" : "524__silu_sigmoid__"
    },
    {
      "bottom" : "input.163,524__silu_sigmoid__",
      "alpha" : 1,
      "operation" : 1,
      "weights" : {

      },
      "fused_relu" : 0,
      "debug_info" : "524",
      "top" : "524",
      "type" : "elementwise",
      "name" : "524",
      "beta" : 0
    },
    {
      "bottom" : "input.157,524",
      "alpha" : 1,
      "operation" : 0,
      "weights" : {

      },
      "fused_relu" : 0,
      "debug_info" : "525",
      "top" : "525",
      "type" : "elementwise",
      "name" : "525",
      "beta" : 0
    },
    {
      "pad_r" : 0,
      "fused_relu" : 0,
      "fused_tanh" : 0,
      "debug_info" : "input.165",
      "pad_fill_mode" : 0,
      "pad_b" : 0,
      "pad_l" : 0,
      "top" : "input.165",
      "blob_weights" : 175,
      "K" : 768,
      "blob_biases" : 173,
      "name" : "input.165",
      "has_batch_norm" : 0,
      "type" : "convolution",
      "n_groups" : 1,
      "pad_t" : 0,
      "has_biases" : 1,
      "C" : 384,
      "bottom" : "input.145",
      "weights" : {

      },
      "Nx" : 1,
      "pad_mode" : 0,
      "pad_value" : 0,
      "Ny" : 1,
      "n_parallel" : 1
    },
    {
      "bottom" : "input.165",
      "weights" : {

      },
      "mode" : 3,
      "debug_info" : "534__silu_sigmoid__",
      "top" : "534__silu_sigmoid__",
      "type" : "activation",
      "name" : "534__silu_sigmoid__"
    },
    {
      "bottom" : "input.165,534__silu_sigmoid__",
      "alpha" : 1,
      "operation" : 1,
      "weights" : {

      },
      "fused_relu" : 0,
      "debug_info" : "534",
      "top" : "534",
      "type" : "elementwise",
      "name" : "534",
      "beta" : 0
    },
    {
      "weights" : {

      },
      "debug_info" : "input.167",
      "top" : "input.167",
      "type" : "concat",
      "name" : "input.167",
      "bottom" : "525,534"
    },
    {
      "pad_r" : 0,
      "fused_relu" : 0,
      "fused_tanh" : 0,
      "debug_info" : "input.169",
      "pad_fill_mode" : 0,
      "pad_b" : 0,
      "pad_l" : 0,
      "top" : "input.169",
      "blob_weights" : 179,
      "K" : 768,
      "blob_biases" : 177,
      "name" : "input.169",
      "has_batch_norm" : 0,
      "type" : "convolution",
      "n_groups" : 1,
      "pad_t" : 0,
      "has_biases" : 1,
      "C" : 768,
      "bottom" : "input.167",
      "weights" : {

      },
      "Nx" : 1,
      "pad_mode" : 0,
      "pad_value" : 0,
      "Ny" : 1,
      "n_parallel" : 1
    },
    {
      "bottom" : "input.169",
      "weights" : {

      },
      "mode" : 3,
      "debug_info" : "input.171__silu_sigmoid__",
      "top" : "input.171__silu_sigmoid__",
      "type" : "activation",
      "name" : "input.171__silu_sigmoid__"
    },
    {
      "bottom" : "input.169,input.171__silu_sigmoid__",
      "alpha" : 1,
      "operation" : 1,
      "weights" : {

      },
      "fused_relu" : 0,
      "debug_info" : "input.171",
      "top" : "input.171",
      "type" : "elementwise",
      "name" : "input.171",
      "beta" : 0
    },
    {
      "pad_r" : 0,
      "fused_relu" : 0,
      "fused_tanh" : 0,
      "debug_info" : "input.173",
      "pad_fill_mode" : 0,
      "pad_b" : 0,
      "pad_l" : 0,
      "top" : "input.173",
      "blob_weights" : 183,
      "K" : 768,
      "blob_biases" : 181,
      "name" : "input.173",
      "has_batch_norm" : 0,
      "type" : "convolution",
      "n_groups" : 1,
      "pad_t" : 0,
      "has_biases" : 1,
      "C" : 384,
      "bottom" : "input.171",
      "weights" : {

      },
      "Nx" : 1,
      "pad_mode" : 0,
      "pad_value" : 0,
      "Ny" : 1,
      "n_parallel" : 1
    },
    {
      "bottom" : "input.173",
      "weights" : {

      },
      "mode" : 3,
      "debug_info" : "input.175__silu_sigmoid__",
      "top" : "input.175__silu_sigmoid__",
      "type" : "activation",
      "name" : "input.175__silu_sigmoid__"
    },
    {
      "bottom" : "input.173,input.175__silu_sigmoid__",
      "alpha" : 1,
      "operation" : 1,
      "weights" : {

      },
      "fused_relu" : 0,
      "debug_info" : "input.175",
      "top" : "input.175",
      "type" : "elementwise",
      "name" : "input.175",
      "beta" : 0
    },
    {
      "pad_r" : 2,
      "debug_info" : "input.177",
      "pad_fill_mode" : 0,
      "pad_b" : 2,
      "pad_l" : 2,
      "size_x" : 5,
      "top" : "input.177",
      "top_shape_style" : 0,
      "stride_x" : 1,
      "avg_or_max" : 1,
      "average_count_exclude_padding" : 1,
      "type" : "pool",
      "name" : "input.177",
      "pad_t" : 2,
      "stride_y" : 1,
      "bottom" : "input.175",
      "weights" : {

      },
      "pad_mode" : 0,
      "size_y" : 5,
      "pad_value" : 0
    },
    {
      "pad_r" : 2,
      "debug_info" : "input.179",
      "pad_fill_mode" : 0,
      "pad_b" : 2,
      "pad_l" : 2,
      "size_x" : 5,
      "top" : "input.179",
      "top_shape_style" : 0,
      "stride_x" : 1,
      "avg_or_max" : 1,
      "average_count_exclude_padding" : 1,
      "type" : "pool",
      "name" : "input.179",
      "pad_t" : 2,
      "stride_y" : 1,
      "bottom" : "input.177",
      "weights" : {

      },
      "pad_mode" : 0,
      "size_y" : 5,
      "pad_value" : 0
    },
    {
      "pad_r" : 2,
      "debug_info" : "571",
      "pad_fill_mode" : 0,
      "pad_b" : 2,
      "pad_l" : 2,
      "size_x" : 5,
      "top" : "571",
      "top_shape_style" : 0,
      "stride_x" : 1,
      "avg_or_max" : 1,
      "average_count_exclude_padding" : 1,
      "type" : "pool",
      "name" : "571",
      "pad_t" : 2,
      "stride_y" : 1,
      "bottom" : "input.179",
      "weights" : {

      },
      "pad_mode" : 0,
      "size_y" : 5,
      "pad_value" : 0
    },
    {
      "weights" : {

      },
      "debug_info" : "input.181",
      "top" : "input.181",
      "type" : "concat",
      "name" : "input.181",
      "bottom" : "input.175,input.177,input.179,571"
    },
    {
      "pad_r" : 0,
      "fused_relu" : 0,
      "fused_tanh" : 0,
      "debug_info" : "input.183",
      "pad_fill_mode" : 0,
      "pad_b" : 0,
      "pad_l" : 0,
      "top" : "input.183",
      "blob_weights" : 187,
      "K" : 1536,
      "blob_biases" : 185,
      "name" : "input.183",
      "has_batch_norm" : 0,
      "type" : "convolution",
      "n_groups" : 1,
      "pad_t" : 0,
      "has_biases" : 1,
      "C" : 768,
      "bottom" : "input.181",
      "weights" : {

      },
      "Nx" : 1,
      "pad_mode" : 0,
      "pad_value" : 0,
      "Ny" : 1,
      "n_parallel" : 1
    },
    {
      "bottom" : "input.183",
      "weights" : {

      },
      "mode" : 3,
      "debug_info" : "input.185__silu_sigmoid__",
      "top" : "input.185__silu_sigmoid__",
      "type" : "activation",
      "name" : "input.185__silu_sigmoid__"
    },
    {
      "bottom" : "input.183,input.185__silu_sigmoid__",
      "alpha" : 1,
      "operation" : 1,
      "weights" : {

      },
      "fused_relu" : 0,
      "debug_info" : "input.185",
      "top" : "input.185",
      "type" : "elementwise",
      "name" : "input.185",
      "beta" : 0
    },
    {
      "pad_r" : 0,
      "fused_relu" : 0,
      "fused_tanh" : 0,
      "debug_info" : "input.187",
      "pad_fill_mode" : 0,
      "pad_b" : 0,
      "pad_l" : 0,
      "top" : "input.187",
      "blob_weights" : 191,
      "K" : 768,
      "blob_biases" : 189,
      "name" : "input.187",
      "has_batch_norm" : 0,
      "type" : "convolution",
      "n_groups" : 1,
      "pad_t" : 0,
      "has_biases" : 1,
      "C" : 384,
      "bottom" : "input.185",
      "weights" : {

      },
      "Nx" : 1,
      "pad_mode" : 0,
      "pad_value" : 0,
      "Ny" : 1,
      "n_parallel" : 1
    },
    {
      "bottom" : "input.187",
      "weights" : {

      },
      "mode" : 3,
      "debug_info" : "input.189__silu_sigmoid__",
      "top" : "input.189__silu_sigmoid__",
      "type" : "activation",
      "name" : "input.189__silu_sigmoid__"
    },
    {
      "bottom" : "input.187,input.189__silu_sigmoid__",
      "alpha" : 1,
      "operation" : 1,
      "weights" : {

      },
      "fused_relu" : 0,
      "debug_info" : "input.189",
      "top" : "input.189",
      "type" : "elementwise",
      "name" : "input.189",
      "beta" : 0
    },
    {
      "top" : "593",
      "use_fractional_scale_factors" : false,
      "weights" : {

      },
      "fractional_scaling_factor_y" : 1,
      "type" : "upsample",
      "scaling_factor_x" : 2,
      "mode" : 0,
      "align_corners" : 0,
      "bottom" : "input.189",
      "debug_info" : "593",
      "fractional_scaling_factor_x" : 1,
      "is_legacy_mode" : 1,
      "name" : "593",
      "scaling_factor_y" : 2
    },
    {
      "weights" : {

      },
      "debug_info" : "input.191",
      "top" : "input.191",
      "type" : "concat",
      "name" : "input.191",
      "bottom" : "593,input.141"
    },
    {
      "pad_r" : 0,
      "fused_relu" : 0,
      "fused_tanh" : 0,
      "debug_info" : "input.193",
      "pad_fill_mode" : 0,
      "pad_b" : 0,
      "pad_l" : 0,
      "top" : "input.193",
      "blob_weights" : 195,
      "K" : 768,
      "blob_biases" : 193,
      "name" : "input.193",
      "has_batch_norm" : 0,
      "type" : "convolution",
      "n_groups" : 1,
      "pad_t" : 0,
      "has_biases" : 1,
      "C" : 192,
      "bottom" : "input.191",
      "weights" : {

      },
      "Nx" : 1,
      "pad_mode" : 0,
      "pad_value" : 0,
      "Ny" : 1,
      "n_parallel" : 1
    },
    {
      "bottom" : "input.193",
      "weights" : {

      },
      "mode" : 3,
      "debug_info" : "input.195__silu_sigmoid__",
      "top" : "input.195__silu_sigmoid__",
      "type" : "activation",
      "name" : "input.195__silu_sigmoid__"
    },
    {
      "bottom" : "input.193,input.195__silu_sigmoid__",
      "alpha" : 1,
      "operation" : 1,
      "weights" : {

      },
      "fused_relu" : 0,
      "debug_info" : "input.195",
      "top" : "input.195",
      "type" : "elementwise",
      "name" : "input.195",
      "beta" : 0
    },
    {
      "pad_r" : 0,
      "fused_relu" : 0,
      "fused_tanh" : 0,
      "debug_info" : "input.197",
      "pad_fill_mode" : 0,
      "pad_b" : 0,
      "pad_l" : 0,
      "top" : "input.197",
      "blob_weights" : 199,
      "K" : 192,
      "blob_biases" : 197,
      "name" : "input.197",
      "has_batch_norm" : 0,
      "type" : "convolution",
      "n_groups" : 1,
      "pad_t" : 0,
      "has_biases" : 1,
      "C" : 192,
      "bottom" : "input.195",
      "weights" : {

      },
      "Nx" : 1,
      "pad_mode" : 0,
      "pad_value" : 0,
      "Ny" : 1,
      "n_parallel" : 1
    },
    {
      "bottom" : "input.197",
      "weights" : {

      },
      "mode" : 3,
      "debug_info" : "input.199__silu_sigmoid__",
      "top" : "input.199__silu_sigmoid__",
      "type" : "activation",
      "name" : "input.199__silu_sigmoid__"
    },
    {
      "bottom" : "input.197,input.199__silu_sigmoid__",
      "alpha" : 1,
      "operation" : 1,
      "weights" : {

      },
      "fused_relu" : 0,
      "debug_info" : "input.199",
      "top" : "input.199",
      "type" : "elementwise",
      "name" : "input.199",
      "beta" : 0
    },
    {
      "pad_r" : 1,
      "fused_relu" : 0,
      "fused_tanh" : 0,
      "debug_info" : "input.201",
      "pad_fill_mode" : 0,
      "pad_b" : 1,
      "pad_l" : 1,
      "top" : "input.201",
      "blob_weights" : 203,
      "K" : 192,
      "blob_biases" : 201,
      "name" : "input.201",
      "has_batch_norm" : 0,
      "type" : "convolution",
      "n_groups" : 1,
      "pad_t" : 1,
      "has_biases" : 1,
      "C" : 192,
      "bottom" : "input.199",
      "weights" : {

      },
      "Nx" : 3,
      "pad_mode" : 0,
      "pad_value" : 0,
      "Ny" : 3,
      "n_parallel" : 1
    },
    {
      "bottom" : "input.201",
      "weights" : {

      },
      "mode" : 3,
      "debug_info" : "input.203__silu_sigmoid__",
      "top" : "input.203__silu_sigmoid__",
      "type" : "activation",
      "name" : "input.203__silu_sigmoid__"
    },
    {
      "bottom" : "input.201,input.203__silu_sigmoid__",
      "alpha" : 1,
      "operation" : 1,
      "weights" : {

      },
      "fused_relu" : 0,
      "debug_info" : "input.203",
      "top" : "input.203",
      "type" : "elementwise",
      "name" : "input.203",
      "beta" : 0
    },
    {
      "pad_r" : 0,
      "fused_relu" : 0,
      "fused_tanh" : 0,
      "debug_info" : "input.205",
      "pad_fill_mode" : 0,
      "pad_b" : 0,
      "pad_l" : 0,
      "top" : "input.205",
      "blob_weights" : 207,
      "K" : 192,
      "blob_biases" : 205,
      "name" : "input.205",
      "has_batch_norm" : 0,
      "type" : "convolution",
      "n_groups" : 1,
      "pad_t" : 0,
      "has_biases" : 1,
      "C" : 192,
      "bottom" : "input.203",
      "weights" : {

      },
      "Nx" : 1,
      "pad_mode" : 0,
      "pad_value" : 0,
      "Ny" : 1,
      "n_parallel" : 1
    },
    {
      "bottom" : "input.205",
      "weights" : {

      },
      "mode" : 3,
      "debug_info" : "input.207__silu_sigmoid__",
      "top" : "input.207__silu_sigmoid__",
      "type" : "activation",
      "name" : "input.207__silu_sigmoid__"
    },
    {
      "bottom" : "input.205,input.207__silu_sigmoid__",
      "alpha" : 1,
      "operation" : 1,
      "weights" : {

      },
      "fused_relu" : 0,
      "debug_info" : "input.207",
      "top" : "input.207",
      "type" : "elementwise",
      "name" : "input.207",
      "beta" : 0
    },
    {
      "pad_r" : 1,
      "fused_relu" : 0,
      "fused_tanh" : 0,
      "debug_info" : "input.209",
      "pad_fill_mode" : 0,
      "pad_b" : 1,
      "pad_l" : 1,
      "top" : "input.209",
      "blob_weights" : 211,
      "K" : 192,
      "blob_biases" : 209,
      "name" : "input.209",
      "has_batch_norm" : 0,
      "type" : "convolution",
      "n_groups" : 1,
      "pad_t" : 1,
      "has_biases" : 1,
      "C" : 192,
      "bottom" : "input.207",
      "weights" : {

      },
      "Nx" : 3,
      "pad_mode" : 0,
      "pad_value" : 0,
      "Ny" : 3,
      "n_parallel" : 1
    },
    {
      "bottom" : "input.209",
      "weights" : {

      },
      "mode" : 3,
      "debug_info" : "650__silu_sigmoid__",
      "top" : "650__silu_sigmoid__",
      "type" : "activation",
      "name" : "650__silu_sigmoid__"
    },
    {
      "bottom" : "input.209,650__silu_sigmoid__",
      "alpha" : 1,
      "operation" : 1,
      "weights" : {

      },
      "fused_relu" : 0,
      "debug_info" : "650",
      "top" : "650",
      "type" : "elementwise",
      "name" : "650",
      "beta" : 0
    },
    {
      "pad_r" : 0,
      "fused_relu" : 0,
      "fused_tanh" : 0,
      "debug_info" : "input.211",
      "pad_fill_mode" : 0,
      "pad_b" : 0,
      "pad_l" : 0,
      "top" : "input.211",
      "blob_weights" : 215,
      "K" : 768,
      "blob_biases" : 213,
      "name" : "input.211",
      "has_batch_norm" : 0,
      "type" : "convolution",
      "n_groups" : 1,
      "pad_t" : 0,
      "has_biases" : 1,
      "C" : 192,
      "bottom" : "input.191",
      "weights" : {

      },
      "Nx" : 1,
      "pad_mode" : 0,
      "pad_value" : 0,
      "Ny" : 1,
      "n_parallel" : 1
    },
    {
      "bottom" : "input.211",
      "weights" : {

      },
      "mode" : 3,
      "debug_info" : "659__silu_sigmoid__",
      "top" : "659__silu_sigmoid__",
      "type" : "activation",
      "name" : "659__silu_sigmoid__"
    },
    {
      "bottom" : "input.211,659__silu_sigmoid__",
      "alpha" : 1,
      "operation" : 1,
      "weights" : {

      },
      "fused_relu" : 0,
      "debug_info" : "659",
      "top" : "659",
      "type" : "elementwise",
      "name" : "659",
      "beta" : 0
    },
    {
      "weights" : {

      },
      "debug_info" : "input.213",
      "top" : "input.213",
      "type" : "concat",
      "name" : "input.213",
      "bottom" : "650,659"
    },
    {
      "pad_r" : 0,
      "fused_relu" : 0,
      "fused_tanh" : 0,
      "debug_info" : "input.215",
      "pad_fill_mode" : 0,
      "pad_b" : 0,
      "pad_l" : 0,
      "top" : "input.215",
      "blob_weights" : 219,
      "K" : 384,
      "blob_biases" : 217,
      "name" : "input.215",
      "has_batch_norm" : 0,
      "type" : "convolution",
      "n_groups" : 1,
      "pad_t" : 0,
      "has_biases" : 1,
      "C" : 384,
      "bottom" : "input.213",
      "weights" : {

      },
      "Nx" : 1,
      "pad_mode" : 0,
      "pad_value" : 0,
      "Ny" : 1,
      "n_parallel" : 1
    },
    {
      "bottom" : "input.215",
      "weights" : {

      },
      "mode" : 3,
      "debug_info" : "input.217__silu_sigmoid__",
      "top" : "input.217__silu_sigmoid__",
      "type" : "activation",
      "name" : "input.217__silu_sigmoid__"
    },
    {
      "bottom" : "input.215,input.217__silu_sigmoid__",
      "alpha" : 1,
      "operation" : 1,
      "weights" : {

      },
      "fused_relu" : 0,
      "debug_info" : "input.217",
      "top" : "input.217",
      "type" : "elementwise",
      "name" : "input.217",
      "beta" : 0
    },
    {
      "pad_r" : 0,
      "fused_relu" : 0,
      "fused_tanh" : 0,
      "debug_info" : "input.219",
      "pad_fill_mode" : 0,
      "pad_b" : 0,
      "pad_l" : 0,
      "top" : "input.219",
      "blob_weights" : 223,
      "K" : 384,
      "blob_biases" : 221,
      "name" : "input.219",
      "has_batch_norm" : 0,
      "type" : "convolution",
      "n_groups" : 1,
      "pad_t" : 0,
      "has_biases" : 1,
      "C" : 192,
      "bottom" : "input.217",
      "weights" : {

      },
      "Nx" : 1,
      "pad_mode" : 0,
      "pad_value" : 0,
      "Ny" : 1,
      "n_parallel" : 1
    },
    {
      "bottom" : "input.219",
      "weights" : {

      },
      "mode" : 3,
      "debug_info" : "input.221__silu_sigmoid__",
      "top" : "input.221__silu_sigmoid__",
      "type" : "activation",
      "name" : "input.221__silu_sigmoid__"
    },
    {
      "bottom" : "input.219,input.221__silu_sigmoid__",
      "alpha" : 1,
      "operation" : 1,
      "weights" : {

      },
      "fused_relu" : 0,
      "debug_info" : "input.221",
      "top" : "input.221",
      "type" : "elementwise",
      "name" : "input.221",
      "beta" : 0
    },
    {
      "top" : "681",
      "use_fractional_scale_factors" : false,
      "weights" : {

      },
      "fractional_scaling_factor_y" : 1,
      "type" : "upsample",
      "scaling_factor_x" : 2,
      "mode" : 0,
      "align_corners" : 0,
      "bottom" : "input.221",
      "debug_info" : "681",
      "fractional_scaling_factor_x" : 1,
      "is_legacy_mode" : 1,
      "name" : "681",
      "scaling_factor_y" : 2
    },
    {
      "weights" : {

      },
      "debug_info" : "input.223",
      "top" : "input.223",
      "type" : "concat",
      "name" : "input.223",
      "bottom" : "681,input.79"
    },
    {
      "pad_r" : 0,
      "fused_relu" : 0,
      "fused_tanh" : 0,
      "debug_info" : "input.225",
      "pad_fill_mode" : 0,
      "pad_b" : 0,
      "pad_l" : 0,
      "top" : "input.225",
      "blob_weights" : 227,
      "K" : 384,
      "blob_biases" : 225,
      "name" : "input.225",
      "has_batch_norm" : 0,
      "type" : "convolution",
      "n_groups" : 1,
      "pad_t" : 0,
      "has_biases" : 1,
      "C" : 96,
      "bottom" : "input.223",
      "weights" : {

      },
      "Nx" : 1,
      "pad_mode" : 0,
      "pad_value" : 0,
      "Ny" : 1,
      "n_parallel" : 1
    },
    {
      "bottom" : "input.225",
      "weights" : {

      },
      "mode" : 3,
      "debug_info" : "input.227__silu_sigmoid__",
      "top" : "input.227__silu_sigmoid__",
      "type" : "activation",
      "name" : "input.227__silu_sigmoid__"
    },
    {
      "bottom" : "input.225,input.227__silu_sigmoid__",
      "alpha" : 1,
      "operation" : 1,
      "weights" : {

      },
      "fused_relu" : 0,
      "debug_info" : "input.227",
      "top" : "input.227",
      "type" : "elementwise",
      "name" : "input.227",
      "beta" : 0
    },
    {
      "pad_r" : 0,
      "fused_relu" : 0,
      "fused_tanh" : 0,
      "debug_info" : "input.229",
      "pad_fill_mode" : 0,
      "pad_b" : 0,
      "pad_l" : 0,
      "top" : "input.229",
      "blob_weights" : 231,
      "K" : 96,
      "blob_biases" : 229,
      "name" : "input.229",
      "has_batch_norm" : 0,
      "type" : "convolution",
      "n_groups" : 1,
      "pad_t" : 0,
      "has_biases" : 1,
      "C" : 96,
      "bottom" : "input.227",
      "weights" : {

      },
      "Nx" : 1,
      "pad_mode" : 0,
      "pad_value" : 0,
      "Ny" : 1,
      "n_parallel" : 1
    },
    {
      "bottom" : "input.229",
      "weights" : {

      },
      "mode" : 3,
      "debug_info" : "input.231__silu_sigmoid__",
      "top" : "input.231__silu_sigmoid__",
      "type" : "activation",
      "name" : "input.231__silu_sigmoid__"
    },
    {
      "bottom" : "input.229,input.231__silu_sigmoid__",
      "alpha" : 1,
      "operation" : 1,
      "weights" : {

      },
      "fused_relu" : 0,
      "debug_info" : "input.231",
      "top" : "input.231",
      "type" : "elementwise",
      "name" : "input.231",
      "beta" : 0
    },
    {
      "pad_r" : 1,
      "fused_relu" : 0,
      "fused_tanh" : 0,
      "debug_info" : "input.233",
      "pad_fill_mode" : 0,
      "pad_b" : 1,
      "pad_l" : 1,
      "top" : "input.233",
      "blob_weights" : 235,
      "K" : 96,
      "blob_biases" : 233,
      "name" : "input.233",
      "has_batch_norm" : 0,
      "type" : "convolution",
      "n_groups" : 1,
      "pad_t" : 1,
      "has_biases" : 1,
      "C" : 96,
      "bottom" : "input.231",
      "weights" : {

      },
      "Nx" : 3,
      "pad_mode" : 0,
      "pad_value" : 0,
      "Ny" : 3,
      "n_parallel" : 1
    },
    {
      "bottom" : "input.233",
      "weights" : {

      },
      "mode" : 3,
      "debug_info" : "input.235__silu_sigmoid__",
      "top" : "input.235__silu_sigmoid__",
      "type" : "activation",
      "name" : "input.235__silu_sigmoid__"
    },
    {
      "bottom" : "input.233,input.235__silu_sigmoid__",
      "alpha" : 1,
      "operation" : 1,
      "weights" : {

      },
      "fused_relu" : 0,
      "debug_info" : "input.235",
      "top" : "input.235",
      "type" : "elementwise",
      "name" : "input.235",
      "beta" : 0
    },
    {
      "pad_r" : 0,
      "fused_relu" : 0,
      "fused_tanh" : 0,
      "debug_info" : "input.237",
      "pad_fill_mode" : 0,
      "pad_b" : 0,
      "pad_l" : 0,
      "top" : "input.237",
      "blob_weights" : 239,
      "K" : 96,
      "blob_biases" : 237,
      "name" : "input.237",
      "has_batch_norm" : 0,
      "type" : "convolution",
      "n_groups" : 1,
      "pad_t" : 0,
      "has_biases" : 1,
      "C" : 96,
      "bottom" : "input.235",
      "weights" : {

      },
      "Nx" : 1,
      "pad_mode" : 0,
      "pad_value" : 0,
      "Ny" : 1,
      "n_parallel" : 1
    },
    {
      "bottom" : "input.237",
      "weights" : {

      },
      "mode" : 3,
      "debug_info" : "input.239__silu_sigmoid__",
      "top" : "input.239__silu_sigmoid__",
      "type" : "activation",
      "name" : "input.239__silu_sigmoid__"
    },
    {
      "bottom" : "input.237,input.239__silu_sigmoid__",
      "alpha" : 1,
      "operation" : 1,
      "weights" : {

      },
      "fused_relu" : 0,
      "debug_info" : "input.239",
      "top" : "input.239",
      "type" : "elementwise",
      "name" : "input.239",
      "beta" : 0
    },
    {
      "pad_r" : 1,
      "fused_relu" : 0,
      "fused_tanh" : 0,
      "debug_info" : "input.241",
      "pad_fill_mode" : 0,
      "pad_b" : 1,
      "pad_l" : 1,
      "top" : "input.241",
      "blob_weights" : 243,
      "K" : 96,
      "blob_biases" : 241,
      "name" : "input.241",
      "has_batch_norm" : 0,
      "type" : "convolution",
      "n_groups" : 1,
      "pad_t" : 1,
      "has_biases" : 1,
      "C" : 96,
      "bottom" : "input.239",
      "weights" : {

      },
      "Nx" : 3,
      "pad_mode" : 0,
      "pad_value" : 0,
      "Ny" : 3,
      "n_parallel" : 1
    },
    {
      "bottom" : "input.241",
      "weights" : {

      },
      "mode" : 3,
      "debug_info" : "738__silu_sigmoid__",
      "top" : "738__silu_sigmoid__",
      "type" : "activation",
      "name" : "738__silu_sigmoid__"
    },
    {
      "bottom" : "input.241,738__silu_sigmoid__",
      "alpha" : 1,
      "operation" : 1,
      "weights" : {

      },
      "fused_relu" : 0,
      "debug_info" : "738",
      "top" : "738",
      "type" : "elementwise",
      "name" : "738",
      "beta" : 0
    },
    {
      "pad_r" : 0,
      "fused_relu" : 0,
      "fused_tanh" : 0,
      "debug_info" : "input.243",
      "pad_fill_mode" : 0,
      "pad_b" : 0,
      "pad_l" : 0,
      "top" : "input.243",
      "blob_weights" : 247,
      "K" : 384,
      "blob_biases" : 245,
      "name" : "input.243",
      "has_batch_norm" : 0,
      "type" : "convolution",
      "n_groups" : 1,
      "pad_t" : 0,
      "has_biases" : 1,
      "C" : 96,
      "bottom" : "input.223",
      "weights" : {

      },
      "Nx" : 1,
      "pad_mode" : 0,
      "pad_value" : 0,
      "Ny" : 1,
      "n_parallel" : 1
    },
    {
      "bottom" : "input.243",
      "weights" : {

      },
      "mode" : 3,
      "debug_info" : "747__silu_sigmoid__",
      "top" : "747__silu_sigmoid__",
      "type" : "activation",
      "name" : "747__silu_sigmoid__"
    },
    {
      "bottom" : "input.243,747__silu_sigmoid__",
      "alpha" : 1,
      "operation" : 1,
      "weights" : {

      },
      "fused_relu" : 0,
      "debug_info" : "747",
      "top" : "747",
      "type" : "elementwise",
      "name" : "747",
      "beta" : 0
    },
    {
      "weights" : {

      },
      "debug_info" : "input.245",
      "top" : "input.245",
      "type" : "concat",
      "name" : "input.245",
      "bottom" : "738,747"
    },
    {
      "pad_r" : 0,
      "fused_relu" : 0,
      "fused_tanh" : 0,
      "debug_info" : "input.247",
      "pad_fill_mode" : 0,
      "pad_b" : 0,
      "pad_l" : 0,
      "top" : "input.247",
      "blob_weights" : 251,
      "K" : 192,
      "blob_biases" : 249,
      "name" : "input.247",
      "has_batch_norm" : 0,
      "type" : "convolution",
      "n_groups" : 1,
      "pad_t" : 0,
      "has_biases" : 1,
      "C" : 192,
      "bottom" : "input.245",
      "weights" : {

      },
      "Nx" : 1,
      "pad_mode" : 0,
      "pad_value" : 0,
      "Ny" : 1,
      "n_parallel" : 1
    },
    {
      "bottom" : "input.247",
      "weights" : {

      },
      "mode" : 3,
      "debug_info" : "input.249__silu_sigmoid__",
      "top" : "input.249__silu_sigmoid__",
      "type" : "activation",
      "name" : "input.249__silu_sigmoid__"
    },
    {
      "bottom" : "input.247,input.249__silu_sigmoid__",
      "alpha" : 1,
      "operation" : 1,
      "weights" : {

      },
      "fused_relu" : 0,
      "debug_info" : "input.249",
      "top" : "input.249",
      "type" : "elementwise",
      "name" : "input.249",
      "beta" : 0
    },
    {
      "pad_r" : 1,
      "fused_relu" : 0,
      "fused_tanh" : 0,
      "debug_info" : "input.251",
      "pad_fill_mode" : 0,
      "pad_b" : 1,
      "pad_l" : 1,
      "top" : "input.251",
      "blob_weights" : 255,
      "K" : 192,
      "blob_biases" : 253,
      "stride_x" : 2,
      "name" : "input.251",
      "has_batch_norm" : 0,
      "type" : "convolution",
      "n_groups" : 1,
      "pad_t" : 1,
      "stride_y" : 2,
      "has_biases" : 1,
      "C" : 192,
      "bottom" : "input.249",
      "weights" : {

      },
      "Nx" : 3,
      "pad_mode" : 0,
      "pad_value" : 0,
      "Ny" : 3,
      "n_parallel" : 1
    },
    {
      "bottom" : "input.251",
      "weights" : {

      },
      "mode" : 3,
      "debug_info" : "767__silu_sigmoid__",
      "top" : "767__silu_sigmoid__",
      "type" : "activation",
      "name" : "767__silu_sigmoid__"
    },
    {
      "bottom" : "input.251,767__silu_sigmoid__",
      "alpha" : 1,
      "operation" : 1,
      "weights" : {

      },
      "fused_relu" : 0,
      "debug_info" : "767",
      "top" : "767",
      "type" : "elementwise",
      "name" : "767",
      "beta" : 0
    },
    {
      "weights" : {

      },
      "debug_info" : "input.253",
      "top" : "input.253",
      "type" : "concat",
      "name" : "input.253",
      "bottom" : "767,input.221"
    },
    {
      "pad_r" : 0,
      "fused_relu" : 0,
      "fused_tanh" : 0,
      "debug_info" : "input.255",
      "pad_fill_mode" : 0,
      "pad_b" : 0,
      "pad_l" : 0,
      "top" : "input.255",
      "blob_weights" : 259,
      "K" : 384,
      "blob_biases" : 257,
      "name" : "input.255",
      "has_batch_norm" : 0,
      "type" : "convolution",
      "n_groups" : 1,
      "pad_t" : 0,
      "has_biases" : 1,
      "C" : 192,
      "bottom" : "input.253",
      "weights" : {

      },
      "Nx" : 1,
      "pad_mode" : 0,
      "pad_value" : 0,
      "Ny" : 1,
      "n_parallel" : 1
    },
    {
      "bottom" : "input.255",
      "weights" : {

      },
      "mode" : 3,
      "debug_info" : "input.257__silu_sigmoid__",
      "top" : "input.257__silu_sigmoid__",
      "type" : "activation",
      "name" : "input.257__silu_sigmoid__"
    },
    {
      "bottom" : "input.255,input.257__silu_sigmoid__",
      "alpha" : 1,
      "operation" : 1,
      "weights" : {

      },
      "fused_relu" : 0,
      "debug_info" : "input.257",
      "top" : "input.257",
      "type" : "elementwise",
      "name" : "input.257",
      "beta" : 0
    },
    {
      "pad_r" : 0,
      "fused_relu" : 0,
      "fused_tanh" : 0,
      "debug_info" : "input.259",
      "pad_fill_mode" : 0,
      "pad_b" : 0,
      "pad_l" : 0,
      "top" : "input.259",
      "blob_weights" : 263,
      "K" : 192,
      "blob_biases" : 261,
      "name" : "input.259",
      "has_batch_norm" : 0,
      "type" : "convolution",
      "n_groups" : 1,
      "pad_t" : 0,
      "has_biases" : 1,
      "C" : 192,
      "bottom" : "input.257",
      "weights" : {

      },
      "Nx" : 1,
      "pad_mode" : 0,
      "pad_value" : 0,
      "Ny" : 1,
      "n_parallel" : 1
    },
    {
      "bottom" : "input.259",
      "weights" : {

      },
      "mode" : 3,
      "debug_info" : "input.261__silu_sigmoid__",
      "top" : "input.261__silu_sigmoid__",
      "type" : "activation",
      "name" : "input.261__silu_sigmoid__"
    },
    {
      "bottom" : "input.259,input.261__silu_sigmoid__",
      "alpha" : 1,
      "operation" : 1,
      "weights" : {

      },
      "fused_relu" : 0,
      "debug_info" : "input.261",
      "top" : "input.261",
      "type" : "elementwise",
      "name" : "input.261",
      "beta" : 0
    },
    {
      "pad_r" : 1,
      "fused_relu" : 0,
      "fused_tanh" : 0,
      "debug_info" : "input.263",
      "pad_fill_mode" : 0,
      "pad_b" : 1,
      "pad_l" : 1,
      "top" : "input.263",
      "blob_weights" : 267,
      "K" : 192,
      "blob_biases" : 265,
      "name" : "input.263",
      "has_batch_norm" : 0,
      "type" : "convolution",
      "n_groups" : 1,
      "pad_t" : 1,
      "has_biases" : 1,
      "C" : 192,
      "bottom" : "input.261",
      "weights" : {

      },
      "Nx" : 3,
      "pad_mode" : 0,
      "pad_value" : 0,
      "Ny" : 3,
      "n_parallel" : 1
    },
    {
      "bottom" : "input.263",
      "weights" : {

      },
      "mode" : 3,
      "debug_info" : "input.265__silu_sigmoid__",
      "top" : "input.265__silu_sigmoid__",
      "type" : "activation",
      "name" : "input.265__silu_sigmoid__"
    },
    {
      "bottom" : "input.263,input.265__silu_sigmoid__",
      "alpha" : 1,
      "operation" : 1,
      "weights" : {

      },
      "fused_relu" : 0,
      "debug_info" : "input.265",
      "top" : "input.265",
      "type" : "elementwise",
      "name" : "input.265",
      "beta" : 0
    },
    {
      "pad_r" : 0,
      "fused_relu" : 0,
      "fused_tanh" : 0,
      "debug_info" : "input.267",
      "pad_fill_mode" : 0,
      "pad_b" : 0,
      "pad_l" : 0,
      "top" : "input.267",
      "blob_weights" : 271,
      "K" : 192,
      "blob_biases" : 269,
      "name" : "input.267",
      "has_batch_norm" : 0,
      "type" : "convolution",
      "n_groups" : 1,
      "pad_t" : 0,
      "has_biases" : 1,
      "C" : 192,
      "bottom" : "input.265",
      "weights" : {

      },
      "Nx" : 1,
      "pad_mode" : 0,
      "pad_value" : 0,
      "Ny" : 1,
      "n_parallel" : 1
    },
    {
      "bottom" : "input.267",
      "weights" : {

      },
      "mode" : 3,
      "debug_info" : "input.269__silu_sigmoid__",
      "top" : "input.269__silu_sigmoid__",
      "type" : "activation",
      "name" : "input.269__silu_sigmoid__"
    },
    {
      "bottom" : "input.267,input.269__silu_sigmoid__",
      "alpha" : 1,
      "operation" : 1,
      "weights" : {

      },
      "fused_relu" : 0,
      "debug_info" : "input.269",
      "top" : "input.269",
      "type" : "elementwise",
      "name" : "input.269",
      "beta" : 0
    },
    {
      "pad_r" : 1,
      "fused_relu" : 0,
      "fused_tanh" : 0,
      "debug_info" : "input.271",
      "pad_fill_mode" : 0,
      "pad_b" : 1,
      "pad_l" : 1,
      "top" : "input.271",
      "blob_weights" : 275,
      "K" : 192,
      "blob_biases" : 273,
      "name" : "input.271",
      "has_batch_norm" : 0,
      "type" : "convolution",
      "n_groups" : 1,
      "pad_t" : 1,
      "has_biases" : 1,
      "C" : 192,
      "bottom" : "input.269",
      "weights" : {

      },
      "Nx" : 3,
      "pad_mode" : 0,
      "pad_value" : 0,
      "Ny" : 3,
      "n_parallel" : 1
    },
    {
      "bottom" : "input.271",
      "weights" : {

      },
      "mode" : 3,
      "debug_info" : "824__silu_sigmoid__",
      "top" : "824__silu_sigmoid__",
      "type" : "activation",
      "name" : "824__silu_sigmoid__"
    },
    {
      "bottom" : "input.271,824__silu_sigmoid__",
      "alpha" : 1,
      "operation" : 1,
      "weights" : {

      },
      "fused_relu" : 0,
      "debug_info" : "824",
      "top" : "824",
      "type" : "elementwise",
      "name" : "824",
      "beta" : 0
    },
    {
      "pad_r" : 0,
      "fused_relu" : 0,
      "fused_tanh" : 0,
      "debug_info" : "input.273",
      "pad_fill_mode" : 0,
      "pad_b" : 0,
      "pad_l" : 0,
      "top" : "input.273",
      "blob_weights" : 279,
      "K" : 384,
      "blob_biases" : 277,
      "name" : "input.273",
      "has_batch_norm" : 0,
      "type" : "convolution",
      "n_groups" : 1,
      "pad_t" : 0,
      "has_biases" : 1,
      "C" : 192,
      "bottom" : "input.253",
      "weights" : {

      },
      "Nx" : 1,
      "pad_mode" : 0,
      "pad_value" : 0,
      "Ny" : 1,
      "n_parallel" : 1
    },
    {
      "bottom" : "input.273",
      "weights" : {

      },
      "mode" : 3,
      "debug_info" : "833__silu_sigmoid__",
      "top" : "833__silu_sigmoid__",
      "type" : "activation",
      "name" : "833__silu_sigmoid__"
    },
    {
      "bottom" : "input.273,833__silu_sigmoid__",
      "alpha" : 1,
      "operation" : 1,
      "weights" : {

      },
      "fused_relu" : 0,
      "debug_info" : "833",
      "top" : "833",
      "type" : "elementwise",
      "name" : "833",
      "beta" : 0
    },
    {
      "weights" : {

      },
      "debug_info" : "input.275",
      "top" : "input.275",
      "type" : "concat",
      "name" : "input.275",
      "bottom" : "824,833"
    },
    {
      "pad_r" : 0,
      "fused_relu" : 0,
      "fused_tanh" : 0,
      "debug_info" : "input.277",
      "pad_fill_mode" : 0,
      "pad_b" : 0,
      "pad_l" : 0,
      "top" : "input.277",
      "blob_weights" : 283,
      "K" : 384,
      "blob_biases" : 281,
      "name" : "input.277",
      "has_batch_norm" : 0,
      "type" : "convolution",
      "n_groups" : 1,
      "pad_t" : 0,
      "has_biases" : 1,
      "C" : 384,
      "bottom" : "input.275",
      "weights" : {

      },
      "Nx" : 1,
      "pad_mode" : 0,
      "pad_value" : 0,
      "Ny" : 1,
      "n_parallel" : 1
    },
    {
      "bottom" : "input.277",
      "weights" : {

      },
      "mode" : 3,
      "debug_info" : "input.279__silu_sigmoid__",
      "top" : "input.279__silu_sigmoid__",
      "type" : "activation",
      "name" : "input.279__silu_sigmoid__"
    },
    {
      "bottom" : "input.277,input.279__silu_sigmoid__",
      "alpha" : 1,
      "operation" : 1,
      "weights" : {

      },
      "fused_relu" : 0,
      "debug_info" : "input.279",
      "top" : "input.279",
      "type" : "elementwise",
      "name" : "input.279",
      "beta" : 0
    },
    {
      "pad_r" : 1,
      "fused_relu" : 0,
      "fused_tanh" : 0,
      "debug_info" : "input.281",
      "pad_fill_mode" : 0,
      "pad_b" : 1,
      "pad_l" : 1,
      "top" : "input.281",
      "blob_weights" : 287,
      "K" : 384,
      "blob_biases" : 285,
      "stride_x" : 2,
      "name" : "input.281",
      "has_batch_norm" : 0,
      "type" : "convolution",
      "n_groups" : 1,
      "pad_t" : 1,
      "stride_y" : 2,
      "has_biases" : 1,
      "C" : 384,
      "bottom" : "input.279",
      "weights" : {

      },
      "Nx" : 3,
      "pad_mode" : 0,
      "pad_value" : 0,
      "Ny" : 3,
      "n_parallel" : 1
    },
    {
      "bottom" : "input.281",
      "weights" : {

      },
      "mode" : 3,
      "debug_info" : "853__silu_sigmoid__",
      "top" : "853__silu_sigmoid__",
      "type" : "activation",
      "name" : "853__silu_sigmoid__"
    },
    {
      "bottom" : "input.281,853__silu_sigmoid__",
      "alpha" : 1,
      "operation" : 1,
      "weights" : {

      },
      "fused_relu" : 0,
      "debug_info" : "853",
      "top" : "853",
      "type" : "elementwise",
      "name" : "853",
      "beta" : 0
    },
    {
      "weights" : {

      },
      "debug_info" : "input.283",
      "top" : "input.283",
      "type" : "concat",
      "name" : "input.283",
      "bottom" : "853,input.189"
    },
    {
      "pad_r" : 0,
      "fused_relu" : 0,
      "fused_tanh" : 0,
      "debug_info" : "input.285",
      "pad_fill_mode" : 0,
      "pad_b" : 0,
      "pad_l" : 0,
      "top" : "input.285",
      "blob_weights" : 291,
      "K" : 768,
      "blob_biases" : 289,
      "name" : "input.285",
      "has_batch_norm" : 0,
      "type" : "convolution",
      "n_groups" : 1,
      "pad_t" : 0,
      "has_biases" : 1,
      "C" : 384,
      "bottom" : "input.283",
      "weights" : {

      },
      "Nx" : 1,
      "pad_mode" : 0,
      "pad_value" : 0,
      "Ny" : 1,
      "n_parallel" : 1
    },
    {
      "bottom" : "input.285",
      "weights" : {

      },
      "mode" : 3,
      "debug_info" : "input.287__silu_sigmoid__",
      "top" : "input.287__silu_sigmoid__",
      "type" : "activation",
      "name" : "input.287__silu_sigmoid__"
    },
    {
      "bottom" : "input.285,input.287__silu_sigmoid__",
      "alpha" : 1,
      "operation" : 1,
      "weights" : {

      },
      "fused_relu" : 0,
      "debug_info" : "input.287",
      "top" : "input.287",
      "type" : "elementwise",
      "name" : "input.287",
      "beta" : 0
    },
    {
      "pad_r" : 0,
      "fused_relu" : 0,
      "fused_tanh" : 0,
      "debug_info" : "input.289",
      "pad_fill_mode" : 0,
      "pad_b" : 0,
      "pad_l" : 0,
      "top" : "input.289",
      "blob_weights" : 295,
      "K" : 384,
      "blob_biases" : 293,
      "name" : "input.289",
      "has_batch_norm" : 0,
      "type" : "convolution",
      "n_groups" : 1,
      "pad_t" : 0,
      "has_biases" : 1,
      "C" : 384,
      "bottom" : "input.287",
      "weights" : {

      },
      "Nx" : 1,
      "pad_mode" : 0,
      "pad_value" : 0,
      "Ny" : 1,
      "n_parallel" : 1
    },
    {
      "bottom" : "input.289",
      "weights" : {

      },
      "mode" : 3,
      "debug_info" : "input.291__silu_sigmoid__",
      "top" : "input.291__silu_sigmoid__",
      "type" : "activation",
      "name" : "input.291__silu_sigmoid__"
    },
    {
      "bottom" : "input.289,input.291__silu_sigmoid__",
      "alpha" : 1,
      "operation" : 1,
      "weights" : {

      },
      "fused_relu" : 0,
      "debug_info" : "input.291",
      "top" : "input.291",
      "type" : "elementwise",
      "name" : "input.291",
      "beta" : 0
    },
    {
      "pad_r" : 1,
      "fused_relu" : 0,
      "fused_tanh" : 0,
      "debug_info" : "input.293",
      "pad_fill_mode" : 0,
      "pad_b" : 1,
      "pad_l" : 1,
      "top" : "input.293",
      "blob_weights" : 299,
      "K" : 384,
      "blob_biases" : 297,
      "name" : "input.293",
      "has_batch_norm" : 0,
      "type" : "convolution",
      "n_groups" : 1,
      "pad_t" : 1,
      "has_biases" : 1,
      "C" : 384,
      "bottom" : "input.291",
      "weights" : {

      },
      "Nx" : 3,
      "pad_mode" : 0,
      "pad_value" : 0,
      "Ny" : 3,
      "n_parallel" : 1
    },
    {
      "bottom" : "input.293",
      "weights" : {

      },
      "mode" : 3,
      "debug_info" : "input.295__silu_sigmoid__",
      "top" : "input.295__silu_sigmoid__",
      "type" : "activation",
      "name" : "input.295__silu_sigmoid__"
    },
    {
      "bottom" : "input.293,input.295__silu_sigmoid__",
      "alpha" : 1,
      "operation" : 1,
      "weights" : {

      },
      "fused_relu" : 0,
      "debug_info" : "input.295",
      "top" : "input.295",
      "type" : "elementwise",
      "name" : "input.295",
      "beta" : 0
    },
    {
      "pad_r" : 0,
      "fused_relu" : 0,
      "fused_tanh" : 0,
      "debug_info" : "input.297",
      "pad_fill_mode" : 0,
      "pad_b" : 0,
      "pad_l" : 0,
      "top" : "input.297",
      "blob_weights" : 303,
      "K" : 384,
      "blob_biases" : 301,
      "name" : "input.297",
      "has_batch_norm" : 0,
      "type" : "convolution",
      "n_groups" : 1,
      "pad_t" : 0,
      "has_biases" : 1,
      "C" : 384,
      "bottom" : "input.295",
      "weights" : {

      },
      "Nx" : 1,
      "pad_mode" : 0,
      "pad_value" : 0,
      "Ny" : 1,
      "n_parallel" : 1
    },
    {
      "bottom" : "input.297",
      "weights" : {

      },
      "mode" : 3,
      "debug_info" : "input.299__silu_sigmoid__",
      "top" : "input.299__silu_sigmoid__",
      "type" : "activation",
      "name" : "input.299__silu_sigmoid__"
    },
    {
      "bottom" : "input.297,input.299__silu_sigmoid__",
      "alpha" : 1,
      "operation" : 1,
      "weights" : {

      },
      "fused_relu" : 0,
      "debug_info" : "input.299",
      "top" : "input.299",
      "type" : "elementwise",
      "name" : "input.299",
      "beta" : 0
    },
    {
      "pad_r" : 1,
      "fused_relu" : 0,
      "fused_tanh" : 0,
      "debug_info" : "input.301",
      "pad_fill_mode" : 0,
      "pad_b" : 1,
      "pad_l" : 1,
      "top" : "input.301",
      "blob_weights" : 307,
      "K" : 384,
      "blob_biases" : 305,
      "name" : "input.301",
      "has_batch_norm" : 0,
      "type" : "convolution",
      "n_groups" : 1,
      "pad_t" : 1,
      "has_biases" : 1,
      "C" : 384,
      "bottom" : "input.299",
      "weights" : {

      },
      "Nx" : 3,
      "pad_mode" : 0,
      "pad_value" : 0,
      "Ny" : 3,
      "n_parallel" : 1
    },
    {
      "bottom" : "input.301",
      "weights" : {

      },
      "mode" : 3,
      "debug_info" : "910__silu_sigmoid__",
      "top" : "910__silu_sigmoid__",
      "type" : "activation",
      "name" : "910__silu_sigmoid__"
    },
    {
      "bottom" : "input.301,910__silu_sigmoid__",
      "alpha" : 1,
      "operation" : 1,
      "weights" : {

      },
      "fused_relu" : 0,
      "debug_info" : "910",
      "top" : "910",
      "type" : "elementwise",
      "name" : "910",
      "beta" : 0
    },
    {
      "pad_r" : 0,
      "fused_relu" : 0,
      "fused_tanh" : 0,
      "debug_info" : "input.303",
      "pad_fill_mode" : 0,
      "pad_b" : 0,
      "pad_l" : 0,
      "top" : "input.303",
      "blob_weights" : 311,
      "K" : 768,
      "blob_biases" : 309,
      "name" : "input.303",
      "has_batch_norm" : 0,
      "type" : "convolution",
      "n_groups" : 1,
      "pad_t" : 0,
      "has_biases" : 1,
      "C" : 384,
      "bottom" : "input.283",
      "weights" : {

      },
      "Nx" : 1,
      "pad_mode" : 0,
      "pad_value" : 0,
      "Ny" : 1,
      "n_parallel" : 1
    },
    {
      "bottom" : "input.303",
      "weights" : {

      },
      "mode" : 3,
      "debug_info" : "919__silu_sigmoid__",
      "top" : "919__silu_sigmoid__",
      "type" : "activation",
      "name" : "919__silu_sigmoid__"
    },
    {
      "bottom" : "input.303,919__silu_sigmoid__",
      "alpha" : 1,
      "operation" : 1,
      "weights" : {

      },
      "fused_relu" : 0,
      "debug_info" : "919",
      "top" : "919",
      "type" : "elementwise",
      "name" : "919",
      "beta" : 0
    },
    {
      "weights" : {

      },
      "debug_info" : "input.305",
      "top" : "input.305",
      "type" : "concat",
      "name" : "input.305",
      "bottom" : "910,919"
    },
    {
      "pad_r" : 0,
      "fused_relu" : 0,
      "fused_tanh" : 0,
      "debug_info" : "input.307",
      "pad_fill_mode" : 0,
      "pad_b" : 0,
      "pad_l" : 0,
      "top" : "input.307",
      "blob_weights" : 315,
      "K" : 768,
      "blob_biases" : 313,
      "name" : "input.307",
      "has_batch_norm" : 0,
      "type" : "convolution",
      "n_groups" : 1,
      "pad_t" : 0,
      "has_biases" : 1,
      "C" : 768,
      "bottom" : "input.305",
      "weights" : {

      },
      "Nx" : 1,
      "pad_mode" : 0,
      "pad_value" : 0,
      "Ny" : 1,
      "n_parallel" : 1
    },
    {
      "bottom" : "input.307",
      "weights" : {

      },
      "mode" : 3,
      "debug_info" : "input__silu_sigmoid__",
      "top" : "input__silu_sigmoid__",
      "type" : "activation",
      "name" : "input__silu_sigmoid__"
    },
    {
      "bottom" : "input.307,input__silu_sigmoid__",
      "alpha" : 1,
      "operation" : 1,
      "weights" : {

      },
      "fused_relu" : 0,
      "debug_info" : "input",
      "top" : "input",
      "type" : "elementwise",
      "name" : "input",
      "beta" : 0
    },
    {
      "pad_r" : 0,
      "fused_relu" : 0,
      "fused_tanh" : 0,
      "debug_info" : "943",
      "pad_fill_mode" : 0,
      "pad_b" : 0,
      "pad_l" : 0,
      "top" : "943",
      "blob_weights" : 319,
      "K" : 192,
      "blob_biases" : 317,
      "name" : "943",
      "has_batch_norm" : 0,
      "type" : "convolution",
      "n_groups" : 1,
      "pad_t" : 0,
      "has_biases" : 1,
      "C" : 255,
      "bottom" : "input.249",
      "weights" : {

      },
      "Nx" : 1,
      "pad_mode" : 0,
      "pad_value" : 0,
      "Ny" : 1,
      "n_parallel" : 1
    },
    {
      "name" : "948",
      "weights" : {

      },
      "dst_w" : 24,
      "version" : 1,
      "dst_n" : 3,
      "dst_nd_rank" : 5,
      "type" : "reshape",
      "dst_h" : 40,
      "mode" : 0,
      "dynamic_shape" : false,
      "bottom" : "943",
      "debug_info" : "948",
      "dst_seq" : 1,
      "dst_k" : 85,
      "top" : "948"
    },
    {
      "axis_h" : 0,
      "axis_w" : 2,
      "bottom" : "948",
      "axis_k" : 1,
      "axis_n" : 3,
      "axis_seq" : 4,
      "weights" : {

      },
      "debug_info" : "transpose_2",
      "top" : "transpose_2",
      "type" : "transpose",
      "name" : "transpose_2"
    },
    {
      "bottom" : "transpose_2",
      "weights" : {

      },
      "mode" : 3,
      "debug_info" : "952",
      "top" : "952",
      "type" : "activation",
      "name" : "952"
    },
    {
      "begin_104" : 0,
      "begin_63" : 0,
      "begin_59" : 0,
      "begin_64" : 0,
      "begin_105" : 0,
      "begin_65" : 0,
      "begin_0" : 2,
      "begin_70" : 0,
      "begin_66" : 0,
      "begin_106" : 0,
      "begin_110" : 0,
      "begin_2" : 81,
      "begin_71" : 0,
      "begin_67" : 0,
      "begin_68" : 0,
      "begin_107" : 0,
      "begin_111" : 0,
      "begin_4" : 0,
      "begin_72" : 0,
      "begin_73" : 0,
      "begin_69" : 0,
      "begin_6" : 0,
      "begin_74" : 0,
      "begin_108" : 0,
      "type" : "split_nd",
      "begin_8" : 0,
      "begin_112" : 0,
      "begin_75" : 0,
      "begin_10" : 0,
      "begin_80" : 0,
      "begin_76" : 0,
      "begin_109" : 0,
      "begin_113" : 0,
      "begin_11" : 0,
      "nd_axis" : 4,
      "begin_81" : 0,
      "begin_77" : 0,
      "begin_114" : 0,
      "begin_12" : 0,
      "begin_78" : 0,
      "begin_82" : 0,
      "begin_13" : 0,
      "begin_83" : 0,
      "begin_79" : 0,
      "begin_115" : 0,
      "begin_14" : 0,
      "begin_84" : 0,
      "begin_15" : 0,
      "begin_85" : 0,
      "num_splits" : 3,
      "begin_116" : 0,
      "begin_120" : 0,
      "begin_20" : 0,
      "begin_86" : 0,
      "begin_16" : 0,
      "begin_90" : 0,
      "begin_21" : 0,
      "begin_91" : 0,
      "begin_87" : 0,
      "begin_17" : 0,
      "begin_117" : 0,
      "begin_121" : 0,
      "begin_18" : 0,
      "begin_92" : 0,
      "begin_88" : 0,
      "begin_22" : 0,
      "begin_23" : 0,
      "begin_89" : 0,
      "begin_19" : 0,
      "begin_93" : 0,
      "begin_118" : 0,
      "begin_122" : 0,
      "begin_24" : 0,
      "begin_94" : 0,
      "begin_25" : 0,
      "begin_95" : 0,
      "begin_119" : 0,
      "begin_123" : 0,
      "begin_30" : 0,
      "begin_26" : 0,
      "begin_96" : 0,
      "begin_124" : 0,
      "begin_31" : 0,
      "begin_97" : 0,
      "begin_27" : 0,
      "begin_28" : 0,
      "begin_98" : 0,
      "begin_32" : 0,
      "begin_125" : 0,
      "begin_33" : 0,
      "begin_29" : 0,
      "begin_99" : 0,
      "begin_1" : 2,
      "weights" : {

      },
      "begin_34" : 0,
      "bottom" : "952",
      "begin_3" : 0,
      "begin_126" : 0,
      "begin_35" : 0,
      "begin_5" : 0,
      "begin_36" : 0,
      "begin_40" : 0,
      "begin_127" : 0,
      "name" : "954",
      "begin_41" : 0,
      "begin_37" : 0,
      "begin_7" : 0,
      "begin_42" : 0,
      "begin_38" : 0,
      "begin_9" : 0,
      "begin_39" : 0,
      "begin_43" : 0,
      "begin_44" : 0,
      "begin_45" : 0,
      "begin_50" : 0,
      "begin_46" : 0,
      "begin_51" : 0,
      "begin_47" : 0,
      "begin_100" : 0,
      "begin_52" : 0,
      "debug_info" : "954",
      "begin_48" : 0,
      "top" : "954_0,954_1,954_2",
      "begin_101" : 0,
      "begin_53" : 0,
      "begin_49" : 0,
      "begin_54" : 0,
      "begin_55" : 0,
      "begin_102" : 0,
      "begin_60" : 0,
      "begin_56" : 0,
      "begin_103" : 0,
      "begin_57" : 0,
      "begin_61" : 0,
      "begin_62" : 0,
      "begin_58" : 0
    },
    {
      "bottom" : "954_0",
      "alpha" : 2,
      "operation" : 1,
      "weights" : {

      },
      "fused_relu" : 0,
      "debug_info" : "959",
      "top" : "959",
      "type" : "elementwise",
      "name" : "959",
      "beta" : 0
    },
    {
      "top" : "6",
      "w" : 2,
      "h" : 24,
      "name" : "6",
      "nd_rank" : 5,
      "type" : "load_constant",
      "k" : 40,
      "bottom" : "",
      "debug_info" : "6",
      "n" : 3,
      "weights" : {

      },
      "constant_blob" : 321
    },
    {
      "bottom" : "959,6",
      "alpha" : 1,
      "operation" : 0,
      "weights" : {

      },
      "fused_relu" : 0,
      "debug_info" : "960",
      "top" : "960",
      "type" : "elementwise",
      "name" : "960",
      "beta" : 0
    },
    {
      "bottom" : "960",
      "alpha" : 8,
      "operation" : 1,
      "weights" : {

      },
      "fused_relu" : 0,
      "debug_info" : "xy.3",
      "top" : "xy.3",
      "type" : "elementwise",
      "name" : "xy.3",
      "beta" : 0
    },
    {
      "bottom" : "954_1",
      "alpha" : 2,
      "operation" : 1,
      "weights" : {

      },
      "fused_relu" : 0,
      "debug_info" : "964",
      "top" : "964",
      "type" : "elementwise",
      "name" : "964",
      "beta" : 0
    },
    {
      "bottom" : "964",
      "alpha" : 2,
      "operation" : 13,
      "weights" : {

      },
      "fused_relu" : 0,
      "debug_info" : "965",
      "top" : "965",
      "type" : "elementwise",
      "name" : "965",
      "beta" : 0
    },
    {
      "top" : "9",
      "w" : 2,
      "h" : 24,
      "name" : "9",
      "nd_rank" : 5,
      "type" : "load_constant",
      "k" : 40,
      "bottom" : "",
      "debug_info" : "9",
      "n" : 3,
      "weights" : {

      },
      "constant_blob" : 323
    },
    {
      "bottom" : "965,9",
      "alpha" : 1,
      "operation" : 1,
      "weights" : {

      },
      "fused_relu" : 0,
      "debug_info" : "wh.3",
      "top" : "wh.3",
      "type" : "elementwise",
      "name" : "wh.3",
      "beta" : 0
    },
    {
      "bottom" : "xy.3,wh.3,954_2",
      "weights" : {

      },
      "nd_mode" : true,
      "axis" : 4,
      "debug_info" : "y.1",
      "top" : "y.1",
      "type" : "general_concat",
      "name" : "y.1"
    },
    {
      "name" : "970",
      "weights" : {

      },
      "dst_w" : 85,
      "version" : 1,
      "dst_n" : 1,
      "dst_nd_rank" : 3,
      "type" : "reshape",
      "dst_h" : -1,
      "mode" : 0,
      "dynamic_shape" : false,
      "bottom" : "y.1",
      "debug_info" : "970",
      "dst_seq" : 1,
      "dst_k" : 1,
      "top" : "970"
    },
    {
      "pad_r" : 0,
      "fused_relu" : 0,
      "fused_tanh" : 0,
      "debug_info" : "977",
      "pad_fill_mode" : 0,
      "pad_b" : 0,
      "pad_l" : 0,
      "top" : "977",
      "blob_weights" : 327,
      "K" : 384,
      "blob_biases" : 325,
      "name" : "977",
      "has_batch_norm" : 0,
      "type" : "convolution",
      "n_groups" : 1,
      "pad_t" : 0,
      "has_biases" : 1,
      "C" : 255,
      "bottom" : "input.279",
      "weights" : {

      },
      "Nx" : 1,
      "pad_mode" : 0,
      "pad_value" : 0,
      "Ny" : 1,
      "n_parallel" : 1
    },
    {
      "name" : "982",
      "weights" : {

      },
      "dst_w" : 12,
      "version" : 1,
      "dst_n" : 3,
      "dst_nd_rank" : 5,
      "type" : "reshape",
      "dst_h" : 20,
      "mode" : 0,
      "dynamic_shape" : false,
      "bottom" : "977",
      "debug_info" : "982",
      "dst_seq" : 1,
      "dst_k" : 85,
      "top" : "982"
    },
    {
      "axis_h" : 0,
      "axis_w" : 2,
      "bottom" : "982",
      "axis_k" : 1,
      "axis_n" : 3,
      "axis_seq" : 4,
      "weights" : {

      },
      "debug_info" : "transpose_1",
      "top" : "transpose_1",
      "type" : "transpose",
      "name" : "transpose_1"
    },
    {
      "bottom" : "transpose_1",
      "weights" : {

      },
      "mode" : 3,
      "debug_info" : "986",
      "top" : "986",
      "type" : "activation",
      "name" : "986"
    },
    {
      "begin_104" : 0,
      "begin_63" : 0,
      "begin_59" : 0,
      "begin_64" : 0,
      "begin_105" : 0,
      "begin_65" : 0,
      "begin_0" : 2,
      "begin_70" : 0,
      "begin_66" : 0,
      "begin_106" : 0,
      "begin_110" : 0,
      "begin_2" : 81,
      "begin_71" : 0,
      "begin_67" : 0,
      "begin_68" : 0,
      "begin_107" : 0,
      "begin_111" : 0,
      "begin_4" : 0,
      "begin_72" : 0,
      "begin_73" : 0,
      "begin_69" : 0,
      "begin_6" : 0,
      "begin_74" : 0,
      "begin_108" : 0,
      "type" : "split_nd",
      "begin_8" : 0,
      "begin_112" : 0,
      "begin_75" : 0,
      "begin_10" : 0,
      "begin_80" : 0,
      "begin_76" : 0,
      "begin_109" : 0,
      "begin_113" : 0,
      "begin_11" : 0,
      "nd_axis" : 4,
      "begin_81" : 0,
      "begin_77" : 0,
      "begin_114" : 0,
      "begin_12" : 0,
      "begin_78" : 0,
      "begin_82" : 0,
      "begin_13" : 0,
      "begin_83" : 0,
      "begin_79" : 0,
      "begin_115" : 0,
      "begin_14" : 0,
      "begin_84" : 0,
      "begin_15" : 0,
      "begin_85" : 0,
      "num_splits" : 3,
      "begin_116" : 0,
      "begin_120" : 0,
      "begin_20" : 0,
      "begin_86" : 0,
      "begin_16" : 0,
      "begin_90" : 0,
      "begin_21" : 0,
      "begin_91" : 0,
      "begin_87" : 0,
      "begin_17" : 0,
      "begin_117" : 0,
      "begin_121" : 0,
      "begin_18" : 0,
      "begin_92" : 0,
      "begin_88" : 0,
      "begin_22" : 0,
      "begin_23" : 0,
      "begin_89" : 0,
      "begin_19" : 0,
      "begin_93" : 0,
      "begin_118" : 0,
      "begin_122" : 0,
      "begin_24" : 0,
      "begin_94" : 0,
      "begin_25" : 0,
      "begin_95" : 0,
      "begin_119" : 0,
      "begin_123" : 0,
      "begin_30" : 0,
      "begin_26" : 0,
      "begin_96" : 0,
      "begin_124" : 0,
      "begin_31" : 0,
      "begin_97" : 0,
      "begin_27" : 0,
      "begin_28" : 0,
      "begin_98" : 0,
      "begin_32" : 0,
      "begin_125" : 0,
      "begin_33" : 0,
      "begin_29" : 0,
      "begin_99" : 0,
      "begin_1" : 2,
      "weights" : {

      },
      "begin_34" : 0,
      "bottom" : "986",
      "begin_3" : 0,
      "begin_126" : 0,
      "begin_35" : 0,
      "begin_5" : 0,
      "begin_36" : 0,
      "begin_40" : 0,
      "begin_127" : 0,
      "name" : "988",
      "begin_41" : 0,
      "begin_37" : 0,
      "begin_7" : 0,
      "begin_42" : 0,
      "begin_38" : 0,
      "begin_9" : 0,
      "begin_39" : 0,
      "begin_43" : 0,
      "begin_44" : 0,
      "begin_45" : 0,
      "begin_50" : 0,
      "begin_46" : 0,
      "begin_51" : 0,
      "begin_47" : 0,
      "begin_100" : 0,
      "begin_52" : 0,
      "debug_info" : "988",
      "begin_48" : 0,
      "top" : "988_0,988_1,988_2",
      "begin_101" : 0,
      "begin_53" : 0,
      "begin_49" : 0,
      "begin_54" : 0,
      "begin_55" : 0,
      "begin_102" : 0,
      "begin_60" : 0,
      "begin_56" : 0,
      "begin_103" : 0,
      "begin_57" : 0,
      "begin_61" : 0,
      "begin_62" : 0,
      "begin_58" : 0
    },
    {
      "bottom" : "988_0",
      "alpha" : 2,
      "operation" : 1,
      "weights" : {

      },
      "fused_relu" : 0,
      "debug_info" : "993",
      "top" : "993",
      "type" : "elementwise",
      "name" : "993",
      "beta" : 0
    },
    {
      "top" : "11",
      "w" : 2,
      "h" : 12,
      "name" : "11",
      "nd_rank" : 5,
      "type" : "load_constant",
      "k" : 20,
      "bottom" : "",
      "debug_info" : "11",
      "n" : 3,
      "weights" : {

      },
      "constant_blob" : 329
    },
    {
      "bottom" : "993,11",
      "alpha" : 1,
      "operation" : 0,
      "weights" : {

      },
      "fused_relu" : 0,
      "debug_info" : "994",
      "top" : "994",
      "type" : "elementwise",
      "name" : "994",
      "beta" : 0
    },
    {
      "bottom" : "994",
      "alpha" : 16,
      "operation" : 1,
      "weights" : {

      },
      "fused_relu" : 0,
      "debug_info" : "xy.7",
      "top" : "xy.7",
      "type" : "elementwise",
      "name" : "xy.7",
      "beta" : 0
    },
    {
      "bottom" : "988_1",
      "alpha" : 2,
      "operation" : 1,
      "weights" : {

      },
      "fused_relu" : 0,
      "debug_info" : "998",
      "top" : "998",
      "type" : "elementwise",
      "name" : "998",
      "beta" : 0
    },
    {
      "bottom" : "998",
      "alpha" : 2,
      "operation" : 13,
      "weights" : {

      },
      "fused_relu" : 0,
      "debug_info" : "999",
      "top" : "999",
      "type" : "elementwise",
      "name" : "999",
      "beta" : 0
    },
    {
      "top" : "12",
      "w" : 2,
      "h" : 12,
      "name" : "12",
      "nd_rank" : 5,
      "type" : "load_constant",
      "k" : 20,
      "bottom" : "",
      "debug_info" : "12",
      "n" : 3,
      "weights" : {

      },
      "constant_blob" : 331
    },
    {
      "bottom" : "999,12",
      "alpha" : 1,
      "operation" : 1,
      "weights" : {

      },
      "fused_relu" : 0,
      "debug_info" : "wh.7",
      "top" : "wh.7",
      "type" : "elementwise",
      "name" : "wh.7",
      "beta" : 0
    },
    {
      "bottom" : "xy.7,wh.7,988_2",
      "weights" : {

      },
      "nd_mode" : true,
      "axis" : 4,
      "debug_info" : "y.3",
      "top" : "y.3",
      "type" : "general_concat",
      "name" : "y.3"
    },
    {
      "name" : "1004",
      "weights" : {

      },
      "dst_w" : 85,
      "version" : 1,
      "dst_n" : 1,
      "dst_nd_rank" : 3,
      "type" : "reshape",
      "dst_h" : -1,
      "mode" : 0,
      "dynamic_shape" : false,
      "bottom" : "y.3",
      "debug_info" : "1004",
      "dst_seq" : 1,
      "dst_k" : 1,
      "top" : "1004"
    },
    {
      "pad_r" : 0,
      "fused_relu" : 0,
      "fused_tanh" : 0,
      "debug_info" : "1011",
      "pad_fill_mode" : 0,
      "pad_b" : 0,
      "pad_l" : 0,
      "top" : "1011",
      "blob_weights" : 335,
      "K" : 768,
      "blob_biases" : 333,
      "name" : "1011",
      "has_batch_norm" : 0,
      "type" : "convolution",
      "n_groups" : 1,
      "pad_t" : 0,
      "has_biases" : 1,
      "C" : 255,
      "bottom" : "input",
      "weights" : {

      },
      "Nx" : 1,
      "pad_mode" : 0,
      "pad_value" : 0,
      "Ny" : 1,
      "n_parallel" : 1
    },
    {
      "name" : "1016",
      "weights" : {

      },
      "dst_w" : 6,
      "version" : 1,
      "dst_n" : 3,
      "dst_nd_rank" : 5,
      "type" : "reshape",
      "dst_h" : 10,
      "mode" : 0,
      "dynamic_shape" : false,
      "bottom" : "1011",
      "debug_info" : "1016",
      "dst_seq" : 1,
      "dst_k" : 85,
      "top" : "1016"
    },
    {
      "axis_h" : 0,
      "axis_w" : 2,
      "bottom" : "1016",
      "axis_k" : 1,
      "axis_n" : 3,
      "axis_seq" : 4,
      "weights" : {

      },
      "debug_info" : "transpose_0",
      "top" : "transpose_0",
      "type" : "transpose",
      "name" : "transpose_0"
    },
    {
      "bottom" : "transpose_0",
      "weights" : {

      },
      "mode" : 3,
      "debug_info" : "1020",
      "top" : "1020",
      "type" : "activation",
      "name" : "1020"
    },
    {
      "begin_104" : 0,
      "begin_63" : 0,
      "begin_59" : 0,
      "begin_64" : 0,
      "begin_105" : 0,
      "begin_65" : 0,
      "begin_0" : 2,
      "begin_70" : 0,
      "begin_66" : 0,
      "begin_106" : 0,
      "begin_110" : 0,
      "begin_2" : 81,
      "begin_71" : 0,
      "begin_67" : 0,
      "begin_68" : 0,
      "begin_107" : 0,
      "begin_111" : 0,
      "begin_4" : 0,
      "begin_72" : 0,
      "begin_73" : 0,
      "begin_69" : 0,
      "begin_6" : 0,
      "begin_74" : 0,
      "begin_108" : 0,
      "type" : "split_nd",
      "begin_8" : 0,
      "begin_112" : 0,
      "begin_75" : 0,
      "begin_10" : 0,
      "begin_80" : 0,
      "begin_76" : 0,
      "begin_109" : 0,
      "begin_113" : 0,
      "begin_11" : 0,
      "nd_axis" : 4,
      "begin_81" : 0,
      "begin_77" : 0,
      "begin_114" : 0,
      "begin_12" : 0,
      "begin_78" : 0,
      "begin_82" : 0,
      "begin_13" : 0,
      "begin_83" : 0,
      "begin_79" : 0,
      "begin_115" : 0,
      "begin_14" : 0,
      "begin_84" : 0,
      "begin_15" : 0,
      "begin_85" : 0,
      "num_splits" : 3,
      "begin_116" : 0,
      "begin_120" : 0,
      "begin_20" : 0,
      "begin_86" : 0,
      "begin_16" : 0,
      "begin_90" : 0,
      "begin_21" : 0,
      "begin_91" : 0,
      "begin_87" : 0,
      "begin_17" : 0,
      "begin_117" : 0,
      "begin_121" : 0,
      "begin_18" : 0,
      "begin_92" : 0,
      "begin_88" : 0,
      "begin_22" : 0,
      "begin_23" : 0,
      "begin_89" : 0,
      "begin_19" : 0,
      "begin_93" : 0,
      "begin_118" : 0,
      "begin_122" : 0,
      "begin_24" : 0,
      "begin_94" : 0,
      "begin_25" : 0,
      "begin_95" : 0,
      "begin_119" : 0,
      "begin_123" : 0,
      "begin_30" : 0,
      "begin_26" : 0,
      "begin_96" : 0,
      "begin_124" : 0,
      "begin_31" : 0,
      "begin_97" : 0,
      "begin_27" : 0,
      "begin_28" : 0,
      "begin_98" : 0,
      "begin_32" : 0,
      "begin_125" : 0,
      "begin_33" : 0,
      "begin_29" : 0,
      "begin_99" : 0,
      "begin_1" : 2,
      "weights" : {

      },
      "begin_34" : 0,
      "bottom" : "1020",
      "begin_3" : 0,
      "begin_126" : 0,
      "begin_35" : 0,
      "begin_5" : 0,
      "begin_36" : 0,
      "begin_40" : 0,
      "begin_127" : 0,
      "name" : "1022",
      "begin_41" : 0,
      "begin_37" : 0,
      "begin_7" : 0,
      "begin_42" : 0,
      "begin_38" : 0,
      "begin_9" : 0,
      "begin_39" : 0,
      "begin_43" : 0,
      "begin_44" : 0,
      "begin_45" : 0,
      "begin_50" : 0,
      "begin_46" : 0,
      "begin_51" : 0,
      "begin_47" : 0,
      "begin_100" : 0,
      "begin_52" : 0,
      "debug_info" : "1022",
      "begin_48" : 0,
      "top" : "1022_0,1022_1,1022_2",
      "begin_101" : 0,
      "begin_53" : 0,
      "begin_49" : 0,
      "begin_54" : 0,
      "begin_55" : 0,
      "begin_102" : 0,
      "begin_60" : 0,
      "begin_56" : 0,
      "begin_103" : 0,
      "begin_57" : 0,
      "begin_61" : 0,
      "begin_62" : 0,
      "begin_58" : 0
    },
    {
      "bottom" : "1022_0",
      "alpha" : 2,
      "operation" : 1,
      "weights" : {

      },
      "fused_relu" : 0,
      "debug_info" : "1027",
      "top" : "1027",
      "type" : "elementwise",
      "name" : "1027",
      "beta" : 0
    },
    {
      "top" : "13",
      "w" : 2,
      "h" : 6,
      "name" : "13",
      "nd_rank" : 5,
      "type" : "load_constant",
      "k" : 10,
      "bottom" : "",
      "debug_info" : "13",
      "n" : 3,
      "weights" : {

      },
      "constant_blob" : 337
    },
    {
      "bottom" : "1027,13",
      "alpha" : 1,
      "operation" : 0,
      "weights" : {

      },
      "fused_relu" : 0,
      "debug_info" : "1028",
      "top" : "1028",
      "type" : "elementwise",
      "name" : "1028",
      "beta" : 0
    },
    {
      "bottom" : "1028",
      "alpha" : 32,
      "operation" : 1,
      "weights" : {

      },
      "fused_relu" : 0,
      "debug_info" : "xy",
      "top" : "xy",
      "type" : "elementwise",
      "name" : "xy",
      "beta" : 0
    },
    {
      "bottom" : "1022_1",
      "alpha" : 2,
      "operation" : 1,
      "weights" : {

      },
      "fused_relu" : 0,
      "debug_info" : "1032",
      "top" : "1032",
      "type" : "elementwise",
      "name" : "1032",
      "beta" : 0
    },
    {
      "bottom" : "1032",
      "alpha" : 2,
      "operation" : 13,
      "weights" : {

      },
      "fused_relu" : 0,
      "debug_info" : "1033",
      "top" : "1033",
      "type" : "elementwise",
      "name" : "1033",
      "beta" : 0
    },
    {
      "top" : "14",
      "w" : 2,
      "h" : 6,
      "name" : "14",
      "nd_rank" : 5,
      "type" : "load_constant",
      "k" : 10,
      "bottom" : "",
      "debug_info" : "14",
      "n" : 3,
      "weights" : {

      },
      "constant_blob" : 339
    },
    {
      "bottom" : "1033,14",
      "alpha" : 1,
      "operation" : 1,
      "weights" : {

      },
      "fused_relu" : 0,
      "debug_info" : "wh",
      "top" : "wh",
      "type" : "elementwise",
      "name" : "wh",
      "beta" : 0
    },
    {
      "bottom" : "xy,wh,1022_2",
      "weights" : {

      },
      "nd_mode" : true,
      "axis" : 4,
      "debug_info" : "y",
      "top" : "y",
      "type" : "general_concat",
      "name" : "y"
    },
    {
      "name" : "1038",
      "weights" : {

      },
      "dst_w" : 85,
      "version" : 1,
      "dst_n" : 1,
      "dst_nd_rank" : 3,
      "type" : "reshape",
      "dst_h" : -1,
      "mode" : 0,
      "dynamic_shape" : false,
      "bottom" : "y",
      "debug_info" : "1038",
      "dst_seq" : 1,
      "dst_k" : 1,
      "top" : "1038"
    },
    {
      "bottom" : "970,1004,1038",
      "weights" : {

      },
      "nd_mode" : true,
      "axis" : 1,
      "debug_info" : "1040",
      "top" : "1040",
      "type" : "general_concat",
      "name" : "1040"
    },
    {
      "size_of_axes" : 0,
      "bottom" : "1040",
      "weights" : {

      },
      "nd_axis" : 0,
      "debug_info" : "1041",
      "version" : 1,
      "top" : "1041",
      "type" : "squeeze",
      "name" : "1041",
      "squeeze_all" : true
    },
    {
      "begin_104" : 0,
      "begin_63" : 0,
      "begin_59" : 0,
      "begin_64" : 0,
      "begin_105" : 0,
      "begin_65" : 0,
      "begin_0" : 4,
      "begin_70" : 0,
      "begin_66" : 0,
      "begin_106" : 0,
      "begin_110" : 0,
      "begin_2" : 80,
      "begin_71" : 0,
      "begin_67" : 0,
      "begin_68" : 0,
      "begin_107" : 0,
      "begin_111" : 0,
      "begin_4" : 0,
      "begin_72" : 0,
      "begin_73" : 0,
      "begin_69" : 0,
      "begin_6" : 0,
      "begin_74" : 0,
      "begin_108" : 0,
      "type" : "split_nd",
      "begin_8" : 0,
      "begin_112" : 0,
      "begin_75" : 0,
      "begin_10" : 0,
      "begin_80" : 0,
      "begin_76" : 0,
      "begin_109" : 0,
      "begin_113" : 0,
      "begin_11" : 0,
      "nd_axis" : 1,
      "begin_81" : 0,
      "begin_77" : 0,
      "begin_114" : 0,
      "begin_12" : 0,
      "begin_78" : 0,
      "begin_82" : 0,
      "begin_13" : 0,
      "begin_83" : 0,
      "begin_79" : 0,
      "begin_115" : 0,
      "begin_14" : 0,
      "begin_84" : 0,
      "begin_15" : 0,
      "begin_85" : 0,
      "num_splits" : 3,
      "begin_116" : 0,
      "begin_120" : 0,
      "begin_20" : 0,
      "begin_86" : 0,
      "begin_16" : 0,
      "begin_90" : 0,
      "begin_21" : 0,
      "begin_91" : 0,
      "begin_87" : 0,
      "begin_17" : 0,
      "begin_117" : 0,
      "begin_121" : 0,
      "begin_18" : 0,
      "begin_92" : 0,
      "begin_88" : 0,
      "begin_22" : 0,
      "begin_23" : 0,
      "begin_89" : 0,
      "begin_19" : 0,
      "begin_93" : 0,
      "begin_118" : 0,
      "begin_122" : 0,
      "begin_24" : 0,
      "begin_94" : 0,
      "begin_25" : 0,
      "begin_95" : 0,
      "begin_119" : 0,
      "begin_123" : 0,
      "begin_30" : 0,
      "begin_26" : 0,
      "begin_96" : 0,
      "begin_124" : 0,
      "begin_31" : 0,
      "begin_97" : 0,
      "begin_27" : 0,
      "begin_28" : 0,
      "begin_98" : 0,
      "begin_32" : 0,
      "begin_125" : 0,
      "begin_33" : 0,
      "begin_29" : 0,
      "begin_99" : 0,
      "begin_1" : 1,
      "weights" : {

      },
      "begin_34" : 0,
      "bottom" : "1041",
      "begin_3" : 0,
      "begin_126" : 0,
      "begin_35" : 0,
      "begin_5" : 0,
      "begin_36" : 0,
      "begin_40" : 0,
      "begin_127" : 0,
      "name" : "1047",
      "begin_41" : 0,
      "begin_37" : 0,
      "begin_7" : 0,
      "begin_42" : 0,
      "begin_38" : 0,
      "begin_9" : 0,
      "begin_39" : 0,
      "begin_43" : 0,
      "begin_44" : 0,
      "begin_45" : 0,
      "begin_50" : 0,
      "begin_46" : 0,
      "begin_51" : 0,
      "begin_47" : 0,
      "begin_100" : 0,
      "begin_52" : 0,
      "debug_info" : "1047",
      "begin_48" : 0,
      "top" : "1047_0,1047_1,1047_2",
      "begin_101" : 0,
      "begin_53" : 0,
      "begin_49" : 0,
      "begin_54" : 0,
      "begin_55" : 0,
      "begin_102" : 0,
      "begin_60" : 0,
      "begin_56" : 0,
      "begin_103" : 0,
      "begin_57" : 0,
      "begin_61" : 0,
      "begin_62" : 0,
      "begin_58" : 0
    },
    {
      "name" : "var_1051",
      "fused_relu" : 0,
      "beta" : 0,
      "operation" : 1,
      "type" : "elementwise",
      "alpha" : 1,
      "attributes" : {
        "is_output" : 1
      },
      "bottom" : "1047_2,1047_1",
      "debug_info" : "var_1051",
      "nd_mode" : true,
      "weights" : {

      },
      "top" : "var_1051"
    },
    {
      "top" : "1052",
      "w" : 4,
      "h" : 1,
      "name" : "1052",
      "nd_rank" : 1,
      "type" : "load_constant",
      "k" : 1,
      "bottom" : "",
      "debug_info" : "1052",
      "n" : 1,
      "weights" : {

      },
      "constant_blob" : 341
    },
    {
      "name" : "var_1053",
      "fused_relu" : 0,
      "beta" : 0,
      "operation" : 1,
      "type" : "elementwise",
      "alpha" : 1,
      "attributes" : {
        "is_output" : 1
      },
      "bottom" : "1047_0,1052",
      "debug_info" : "var_1053",
      "nd_mode" : true,
      "weights" : {

      },
      "top" : "var_1053"
    }
  ],
  "transform_params" : {
    "image" : {
      "bias_a" : 0,
      "bias_g" : 0,
      "bias_r" : 0,
      "bias_b" : 0,
      "center_mean" : 0,
      "is_network_bgr" : 0,
      "scale" : 0.0039215688593685627
    }
  },
  "storage" : "model.espresso.weights",
  "metadata_in_weights" : [

  ],
  "properties" : {

  },
  "analyses" : {

  },
  "format_version" : 200
}